models/cnn.pt (torch, 57376 bytes, 6 tensors)

weight f4 [64, 1, 3]
00000000: bf6d f7bf 1727 60be f308 853f 5067 51bf
00000010: e05e 25be cb38 0e3e 4c68 d0bf 340c 86be
00000020: a610 a43f 132e cd3e c70e 7fbf ffcd eabf
00000030: 3a39 c4be 5145 99be 6faa c0be fa36 fdbf
00000040: f7b6 8dbd f6f8 a83f 52d6 68be 8621 a3bf
00000050: 5535 a13f b7f4 51bf 4579 d4bf b758 e0bf
00000060: ffbb b53f d1ef d53d 60fe 5fbe 3c22 0a3f
00000070: 1276 243f 0790 113f f71f a03e d0ee 673f
00000080: f4f8 313d 208a 703f f0ca d9be 0dca e1be
00000090: 6816 c83f e24f d1bd 12fd d7bf 0669 a83e
000000a0: fc77 163f f9c7 d63e 84e5 0c40 540e 053d
000000b0: a24e c2be d094 ccbd 1e7e d73e eae2 07bf
000000c0: 2d3a aabf c00b a5bc 0220 573f 670f 62bf
000000d0: d048 54bd df20 5d3e 142a d03e a326 2f3e
000000e0: 45a2 4b3f caba 323f 454b 9f3e 9d1a ec3e
000000f0: 7234 a83e a6d5 da3e 3262 d83e 2185 a5bf
00000100: 2f1a b0be fce7 1abf d9ca 533f 0eee 2fbd
00000110: 0b56 30be 6492 aabf fc26 7cbe ba70 d83f
00000120: f9b4 00c0 3997 9c3f bbc4 6a3e 67fa 16c0
00000130: e1d9 06be 5ec1 0f40 94eb 233f 15b4 ecbd
00000140: fb6d 2dbf 4496 54be 1923 99be 8c9e acbf
00000150: f2de 30c0 8473 143e f281 1840 575b 733e
00000160: 8df9 04bf e194 e43d c67f 8c3c 85e9 ea3f
00000170: aab8 00c0 2c36 f73e a5a2 0a3f d9f9 df3e
00000180: 70bb 463f a78d d1bd 42ae 483f a96e a93f
00000190: bc90 1a3f 55ef 09c0 3b00 d4bf aa2b 67bf
000001a0: 6a6d 1340 e8fc 423f 2565 ff3e 2729 bf3d
000001b0: 3657 b93e c78b 77bf af7c e7bf 3ba6 0b3f
000001c0: edb7 653f 0e98 863f 409c f23f 352f b03e
000001d0: 34c6 01c0 1adf 753e ebf0 fa3d 966f 2abf
000001e0: 27fc 0a3f 19db a13c dace 1bbf 0cd2 303f
000001f0: 1186 40be b48d 553f 905d 30be a114 01bb
00000200: 5716 3cbe f082 b6bf 9f94 c0bf f4bc 30bf
00000210: 3b18 94bd 3dbd 94bd 02d5 e7be b8a3 743f
00000220: d12f c43e ecd0 97be 05dd 853f 9f83 62bd
00000230: 7ceb 8dbf 861a 873f 2844 013f 8a43 eebd
00000240: a426 b43c 45ca 16bf 4524 9dbf 2a91 dfbf
00000250: f8d7 27bf 8c6c d8be 5947 543f 0698 a6bc
00000260: 568c 41be d39e d23f eb7c 00bf ee46 80bf
00000270: 3c56 0d3f 7034 053e 82be 3ebf d73c babd
00000280: 8f3e bcbc 27fd 61bd 0bc9 fd3f 5c2c 813e
00000290: 32f3 00c0 65ac 73bf 634c 34bd 3988 813e
000002a0: 0973 3b3f d8b1 d63c e780 0fbf f45f d63f
000002b0: f249 49bc 442c f9bf 92f3 dabf ea4a 0e3f
000002c0: 6fb1 a43f e517 8c3f 77d3 c1be 5267 4bbf
000002d0: 5d8b 29bf 5500 043e 5631 033f 7345 3cbf
000002e0: d55f adbf fe41 ddbf ef83 0ebf 8e4e 6bbf
000002f0: 5425 423e 9357 9c3f 252b 493e 8e86 d3bf
-1.9330367 -0.21889912 1.0393356 -0.8179827 -0.16149473 0.13888852 -1.6281829 -0.26181185
1.2817581 0.40074214 -0.99631923 -1.8344115 -0.3832491 -0.29935697 -0.3763003 -1.9782403
-0.069196634 1.3200977 -0.22738007 -1.2744606 1.2594401 -0.8201403 -1.6599509 -1.7527074
1.4197997 0.10446132 -0.2187438 0.5395849 0.6424266 0.56860393 0.31274387 0.90598774
0.04345031 0.9396076 -0.42537642 -0.44099465 1.5631838 -0.102203146 -1.6874106 0.32892627
0.5877683 0.41949442 2.2015085 0.032484367 -0.37950617 -0.09989321 0.42088407 -0.5308062
-1.3299004 -0.020147204 0.84033215 -0.8830475 -0.051827252 0.2159457 0.40657103 0.17104582
0.7954448 0.6981627 0.31112114 0.46114054 0.32852513 0.42741126 0.42262417 -1.2931253
-0.34394976 -0.6051023 0.82731396 -0.042951636 -0.17220323 -1.3325925 -0.24624246 1.6909401
-2.0110457 1.223365 0.22926609 -2.3590333 -0.13169052 2.2461772 0.6403134 -0.115577854
-0.6774594 -0.20760447 -0.2990959 -1.3485885 -2.7636075 0.1449719 2.3829312 0.23765312
-0.51943284 0.11161209 0.01715077 1.8352515 -2.011271 0.48283517 0.54154426 0.43745306
0.77629757 -0.10232096 0.78390896 1.3236896 0.603771 -2.1552327 -1.656257 -0.90301
2.303553 0.76167154 0.49881855 0.09334021 0.3619935 -0.9669766 -1.8084925 0.5455052
0.89733773 1.0515153 1.8953934 0.34411016 -2.0277224 0.24010888 0.12252983 -0.66576517
0.54291004 0.019757794 -0.60862505 0.69070506 -0.18801142 0.83419347 -0.17223191 -0.0019696134
-0.18367897 -1.4258709 -1.5045356 -0.6903832 -0.07231184 -0.07262657 -0.452797 0.95562315
0.3831773 -0.29651582 1.0458075 -0.055301305 -1.1087489 1.0554969 0.50494623 -0.11633976
0.021991082 -0.5890239 -1.2276694 -1.7466176 -0.6556392 -0.42270315 0.8292137 -0.020336162
-0.1890119 1.6454719 -0.5019061 -1.0021646 0.5520971 0.13008285 -0.7450944 -0.090936355
-0.022979049 -0.055173066 1.9826978 0.25229156 -2.0148435 -0.9518493 -0.04401816 0.25299242
0.73222405 0.02620785 -0.56056064 1.6748033 -0.012285696 -1.9466634 -1.7105582 0.5558306
1.2866648 1.0944792 -0.37856647 -0.7945453 -0.66228276 0.12890752 0.51247156 -0.7354347
-1.3544871 -1.7285764 -0.55670065 -0.9191674 0.18959552 1.2214226 0.19645365 -1.6525438

bias f4 [64]
00000000: b38b 4ebe 8284 3ebe 2fce 05bf 77ae 03be
00000010: 59f3 8dbe bd12 12bf ad82 06bf 51a1 60be
00000020: 9989 1b3e 824e c2bf 71c6 91bf e9ea f53b
00000030: 8d54 e6be e5e3 95bf 7c63 a63e 1d18 463d
00000040: da7e d1be 4efd 62be d650 98bf 0cf2 a2bf
00000050: e2d9 85bf 3ebb 8abf 56ce fb3d a9a1 0ebf
00000060: 9d02 09bf 0043 033c 5c3f 58bd 41e2 2a3f
00000070: 02d6 3b3b cd01 0cbe ee8f ddbe 43e4 a1bf
00000080: 1c4a a1bf fc48 09bf 8637 193c 43fb 98bf
00000090: bbfe 07be 1b8b adbf 6ffc 85be ff27 17be
000000a0: 3495 7ebe 5e23 94bf 735a c33d 5192 01c0
000000b0: bb4f 4d3e 2adf 953e 9935 dabe eea5 d13e
000000c0: 6458 0b3f fb48 d6bf 8315 f53d a322 3abe
000000d0: 1bcf e9bd 6565 03bf fe44 9dbe a50e 88be
000000e0: b9b1 233d 2697 ddbe e232 27bf d1b5 88be
000000f0: 2997 20be 1c50 57be 0c93 34be 5d12 c2be
-0.20170479 -0.18605235 -0.52267736 -0.12859522 -0.27724722 -0.5705984 -0.52543145 -0.21936537
0.15189208 -1.5180209 -1.1388685 0.00750481 -0.44986382 -1.1710173 0.32497776 0.04836284
-0.40917093 -0.2216694 -1.1899669 -1.2730117 -1.0457118 -1.0838392 0.12295215 -0.55715424
-0.5351961 0.0080115795 -0.0527948 0.66751486 0.0028661494 -0.13672562 -0.43273872 -1.2647785
-1.2600741 -0.5362699 0.009351617 -1.1951679 -0.13280766 -1.3558077 -0.26169154 -0.14761351
-0.24861604 -1.1573293 0.09538736 -2.0245554 0.20049946 0.29271823 -0.42619017 0.40946907
0.5443175 -1.6741022 0.11966994 -0.18177275 -0.11416455 -0.5132659 -0.307167 -0.26573673
0.03996441 -0.4327938 -0.65312016 -0.26701215 -0.15682663 -0.21026653 -0.17634219 -0.37904635

weight f4 [64, 64, 3]
00000000: 405a 44be c33a 4ebe 4cf4 d1bd 97d5 33bd
00000010: befd adbd d164 38be 52f3 30be 1c11 45be
00000020: 58a8 38be 0a93 933c 0050 ad3d 2f5e 283e
00000030: f46b 00be 1389 9abd cb9a a0bd 057e d9bd
00000040: 43d3 e8bd f45d 35bd 1951 3cbb 7756 78be
00000050: 68a3 65be 6bdf 64bd 2aa1 56bd 126f 16bd
00000060: fe01 9cbd c700 b2bd bcde 19bd bf65 50bd
00000070: 03dd 3abe 29ad 17be cfc4 44bd 2cdd dbbd
00000080: 620f 1fbe ca91 cbbd 9b98 18be 66f1 23be
00000090: 7b40 e6bd a46f 46be 53f7 02bd 8bc8 34be
000000a0: 577b c9bd 3bb5 6bbe 7edf 783d c0c8 ae3d
000000b0: e040 8c3d 0ab0 ffbd dc81 19be 8bcb 06be
000000c0: 697b 88be 898e cbbe ceed aabe 0f1b ecbd
000000d0: 1981 cebd fe16 9dbd 05ad aabd 988a d3bd
000000e0: 3e39 b0bd 92e1 383c 616c b6bd 4530 6fbd
000000f0: 8558 19be 6baa 2cbe 1b5e 0bbe 6cfe 0b3e
00000100: c326 423e 3d1c 6e3d 182c a83c 1139 97bd
00000110: 93a5 083c 4750 843e 3e67 c73c 5da5 d13d
00000120: dd5a fc3d 69fa 1cbe 3447 18be 2630 93bd
00000130: 9c6e 06be 424b cdbd 8f91 70be 50f3 1ebe
00000140: 664e 3fbe 4b80 d6bd 7eaf eabd 7e1f 17be
00000150: 2a26 94be 41f7 56be 1109 42be a50e 7cbc
00000160: 4eb1 4bbd 74cb e1bd 2bc2 6cbd 0d07 b13d
00000170: 6841 e53d 5f94 1abd f91f 26be 4498 2bbe
00000180: 1b72 d0bc f0d9 babd dd5f 80bd 0f8f 71be
00000190: bda9 57be 6d8c a93c b614 41be 2273 e4bd
000001a0: bd03 23be 5a78 c9bd 6a12 00be 81e8 60be
000001b0: e17f 003e 602c 233c 7628 eb3d 840e 133e
000001c0: 94e0 fd3d dd2d 833b 9efa 9abe 3ce7 87be
000001d0: 9332 04be 0196 40bd 1258 a63c a09b e6bd
000001e0: b3a5 00be a5ab b4bd 26de 1abd 0465 ccbd
000001f0: b8b2 7abd 7976 06be 9564 60be 81e4 3ebe
00000200: 2fba 69be 46e5 113f c071 c53e 2a4b fd3e
00000210: 2f5a 5ebe dbdf 48be 10e1 e6bd 004a b9bd
00000220: 9e17 fbbc 61ec b33c 2bcd 11be 4087 133d
00000230: 1e16 513e 91cc d2bd c396 ed3c a88d 453d
00000240: e6c7 2abe 2000 3dbe ffde 3fbe e0b0 a5be
00000250: 2163 a9be 949a b1be 74e0 86bc 3a0a 46bd
00000260: 1c3f 9e3c 74de 033e 14c1 8f3e 6f8b f93e
00000270: a190 81be e0af 50be a684 56be dd1c 203e
00000280: 2328 f93d 0fe7 743d f789 b4be 09d5 59be
00000290: 9a34 65be 0205 f2bd 61c8 3abd 5a71 38be
000002a0: 163a adbd 27a0 66bd 5921 0bbe 2511 3f3d
000002b0: aea9 a53c a41d 563d 2177 9a3e a3aa 403d
000002c0: 54bc 99bd a04c 48bd a5ad a8bc cdc2 573e
000002d0: 8de5 61be ccfb a2be eebf fabe 579f 2ebc
000002e0: c329 9f3d 8ad8 d6bc f3ce 17bd 2410 04be
000002f0: c8ba 00be 6df0 0cbe 1108 38bd 2897 76bd
00000300: 18cc 00bf 3be4 f3be 6d05 a4be a373 5cbe
00000310: 5fc8 02be 2549 ffbd 5ef2 afbe 34c1 89be
00000320: ead1 5fbe 70f9 ffbd 1aa0 9bbc 6165 27bd
00000330: 38ca 26be f29c 69bd 1cff 4bbd 0e71 8fbe
00000340: 7e16 e3be 437e 86be cdd8 21be 42cb 4d3e
00000350: 84d8 8d3e 3571 56be 13ac 43be 65d0 ae3c
00000360: fcf1 9abe 0c4a b2be d7b9 c6be 8da6 533e
00000370: 78a8 a53e 5500 f73e a39d 9bbd 5f4e bf3c
00000380: 59bc 443e a70a fc3d e9fa f23d 2880 b33d
00000390: de77 fabd 1d01 443d 770c 44bb fb56 e83d
000003a0: 8844 8d3e 916c b13e cf78 8abe f5bb 9cbe
000003b0: bf41 afbe 94bb 57bd 46f8 123d 40aa 213e
000003c0: 026e cfbe c86d dcbe 86dc 06bf 4154 74be
000003d0: ceef 16be c879 5fbd 635e 363d 7b31 653e
000003e0: ee32 b63e 0571 39be 05c6 a8bd 645d 6e3c
000003f0: 7d0a 093e ed56 953e 58df 003f f42f c63d
-0.19175053 -0.20139603 -0.10251674 -0.043904867 -0.08495663 -0.18007208 -0.1728032 -0.19244808
-0.18032968 0.01801445 0.084625244 0.16442178 -0.12541181 -0.07545676 -0.078420244 -0.106197394
-0.1136842 -0.044279054 -0.0028734861 -0.24251734 -0.22425616 -0.05587713 -0.05239979 -0.03672702
-0.076175675 -0.086915545 -0.03756593 -0.050878283 -0.18248372 -0.14812149 -0.048039254 -0.107355446
-0.15533212 -0.099399164 -0.14901964 -0.16010055 -0.112427674 -0.19378525 -0.031974148 -0.17654626
-0.09837978 -0.23018353 0.060760014 0.08534384 0.068483114 -0.12484749 -0.14990944 -0.13163583
-0.26656654 -0.39757183 -0.33384556 -0.115285985 -0.10083217 -0.07670401 -0.08333782 -0.10329169
-0.08604668 0.011284249 -0.089073904 -0.058395643 -0.14975174 -0.16861884 -0.13610117 0.13671273
0.18960099 0.0581324 0.020528838 -0.073839314 0.008340257 0.25842497 0.024341222 0.10236619
0.12322018 -0.15329899 -0.14870912 -0.07186918 -0.13128132 -0.1002412 -0.23493026 -0.15522504
-0.1868225 -0.10473689 -0.11459254 -0.14758107 -0.28935367 -0.20992757 -0.18948771 -0.015384351
-0.049729638 -0.11025134 -0.05780236 0.08643923 0.11194116 -0.037739154 -0.16223134 -0.16757303
-0.025445035 -0.091235995 -0.062682845 -0.23589729 -0.21060844 0.020696843 -0.18855557 -0.11154772
-0.15919395 -0.09837408 -0.12507024 -0.21963693 0.12548782 0.00995931 0.11482327 0.14361006
0.123963505 0.00400327 -0.3026933 -0.26543605 -0.12909918 -0.047018055 0.020305667 -0.11260152
-0.12563209 -0.08821801 -0.037809514 -0.09980205 -0.061205596 -0.13131131 -0.21913369 -0.18641855
-0.2282493 0.5699047 0.38563347 0.49471408 -0.2171409 -0.19616644 -0.11273396 -0.090473175
-0.03065091 0.0219633 -0.14238422 0.036017656 0.20418593 -0.10292924 0.029002553 0.048230797
-0.16677818 -0.18457079 -0.1873741 -0.32361507 -0.33083442 -0.34688246 -0.01646445 -0.048349597
0.019317202 0.12877828 0.28076994 0.48739192 -0.25305656 -0.20379591 -0.20949039 0.1563601
0.121658586 0.059790667 -0.3526151 -0.21272673 -0.22383347 -0.118173614 -0.045601252 -0.1801199
-0.08458345 -0.056305077 -0.1358694 0.04664721 0.020222511 0.05227436 0.30169013 0.04703773
-0.07506624 -0.0489012 -0.020590613 0.21070404 -0.22060223 -0.3183273 -0.48974556 -0.010658107
0.07771637 -0.0262263 -0.037062597 -0.12896782 -0.12571251 -0.1376359 -0.044929568 -0.060202748
-0.5031142 -0.47635064 -0.3203539 -0.21528487 -0.12771748 -0.12465123 -0.343646 -0.26905215
-0.2185742 -0.12498748 -0.01899724 -0.040868167 -0.16288078 -0.05703444 -0.049803838 -0.2801594
-0.44353098 -0.26268205 -0.15805359 0.20097068 0.2770425 -0.20941623 -0.1910861 0.021339605
-0.30262744 -0.34822118 -0.3881366 0.20669003 0.32355094 0.4824244 -0.07598426 0.0233528
0.19212474 0.12306719 0.118642636 0.08764678 -0.12229894 0.047852624 -0.0029914656 0.11344715
0.27591348 0.34653142 -0.27045295 -0.3061215 -0.34229848 -0.052669123 0.035881303 0.15787601
-0.40513617 -0.43052506 -0.5268024 -0.23860265 -0.14739916 -0.0545595 0.044523608 0.22382157
0.3558573 -0.1810952 -0.08240894 0.014548633 0.13382907 0.29167882 0.50340796 0.09677115

bias f4 [64]
00000000: 1e41 4ebe 886c 34be 6f67 ed3e 38db e9bd
00000010: e011 8abf ad0b 1f3f 038d 6a3e ea66 21bf
00000020: 6055 a1bd 6f7a fdbf a1de 82be 4487 24c0
00000030: 8b96 95bd 1c75 d7be 7670 273c f72c bdbe
00000040: ff95 3ebf 924d 20bf 6827 18be d4a9 86bf
00000050: b4e4 853c 42d0 a1bf 4e19 e4bd 54d6 5f3c
00000060: bae2 e8bf 1f8f 80bf 6f90 11bf 62c9 09bf
00000070: 6f65 e6be bd9d fbbf 19e2 9bbf ea8d 8bbe
00000080: 7364 97be 5e37 a5bd b3bb acbe da51 14be
00000090: cb35 5fbe bce2 3bbf c700 b9bd bbd6 263b
000000a0: 439f 6dbd 9594 2abd f102 9ebb fdc9 9cbe
000000b0: 995c 45be b65a 8fbe a65b c3be 400b b1bf
000000c0: 147e 133d d3f7 a7be d25d adbd 6e19 213e
000000d0: 546d 183f 5b06 13be 08f3 f63e 9701 59bf
000000e0: 7349 073e 9f99 2dbd 7d0a 163f 34a7 0fc0
000000f0: d72c 293c 69f9 e23e 45a9 73bf 71c0 05be
-0.20142028 -0.17619526 0.46367976 -0.11418766 -1.0786705 0.6212719 0.22905354 -0.6304766
-0.07877612 -1.9802989 -0.25560477 -2.570756 -0.073041044 -0.42081535 0.010219684 -0.36948368
-0.74447626 -0.6261836 -0.14858782 -1.0520577 0.016344406 -1.264168 -0.11137639 0.01366194
-1.8194191 -1.0043677 -0.56861013 -0.5382291 -0.44999263 -1.9657513 -1.2178375 -0.2725671
-0.29568824 -0.08067201 -0.33736953 -0.14484349 -0.21797864 -0.73392844 -0.090333514 0.002545758
-0.058013212 -0.041645605 -0.004822128 -0.30622855 -0.19273604 -0.27998894 -0.3815586 -1.3831558
0.03600891 -0.32806262 -0.084651604 0.15732357 0.5954182 -0.14357893 0.48232293 -0.8476805
0.13211612 -0.042382833 0.58609754 -2.2445803 0.010325632 0.4433091 -0.9518016 -0.13061692

weight f4 [6, 64]
00000000: 7ada 4b3e 90a3 093e 2eb0 953f 1e76 063e
00000010: e3e5 1dc0 b7f2 4bbf 85b8 25be 3408 b0bf
00000020: f3b2 423f 680a 08c0 1116 81bc 3e5e f73e
00000030: 68b5 493f 6112 80bd ba6b 7fbe 07d9 fabc
00000040: 6644 0dbf ce86 2f3f 614a a33e 69ed 763f
00000050: 1d3c fbbe 27bb 90bf bc31 953d ec04 3d3f
00000060: 9b86 073f b41e a23e dc3e 3d3f cd74 503f
00000070: b219 243f 4e88 b8bf 12dc e53e 8d18 303e
00000080: 335c 8ebd 72d7 183c af62 d33d 7046 fc3d
00000090: d6f6 e3be c7df 1cbe d39d c0bf a80c 81be
000000a0: b792 cb3c 09d9 42bc 617a c0be 0854 0a3e
000000b0: 8487 083e 11b7 51bc 7b3c 2c3f d907 f2bc
000000c0: 1ed0 4a3f a7bf 1a3f 0d09 33be f1a2 ebbe
000000d0: fb1f 90be 091a 0d3f 1a3a a3be 25cd 433f
000000e0: c5e6 a5be 8535 033e 0032 35bf 2a9e bac0
000000f0: 8bd5 e4bc afb7 02c0 40d7 0bbf a746 73bf
00000100: 2966 f1bd b310 3a3e 8516 20bf dcfb 7d3e
00000110: f709 4f3f d761 e93c ecc7 a1be 2acf a03e
00000120: 1018 8dbf e7e1 a23e bdd0 863d 6ccd 8dbf
00000130: c19a a5bf dd52 f7bc 41ce 57be 1973 603e
00000140: f15a 173f e3a9 943f 991f 14be 964c 553f
00000150: 823d 033f 8d89 bbbc 4883 1dbe f942 70bf
00000160: 34f8 39be 5917 afbe 617f 03bf e142 3f3f
00000170: ac70 ea3e 3e63 5f3d e2ff e93e 7960 8a3e
00000180: 8f51 5d3d 4e85 333e 7104 a9bd 550e 1f3e
00000190: 83b7 763c 6191 2a3d 7c0c cbbf e6b5 2b3f
000001a0: 9975 e7bb b9a8 70be 94f9 53be b150 22bd
000001b0: 8690 99bd a422 5fbd 61ad 85bf 5714 a93d
000001c0: dd9f a8bf e113 513f d308 b53c 2685 3f3f
000001d0: c0b6 4f3e bdb7 9ebf 37ce 89bf 30c7 253f
000001e0: d43f 033f b084 acbc f521 bebf 9983 923e
000001f0: d291 b8bd 0bf1 12c0 b5bd 9d3f bff0 53bf
00000200: dcaa 0ebe eeaa 813d 34a4 09be 2290 b5bd
00000210: 1a24 1040 f939 863f 8e83 50be 27d4 b53f
00000220: 8cda 143f 11c1 2140 5c82 233e 1b36 793f
00000230: 932b 1c3f b6fd 533e c1d1 22be a94d 6a3e
00000240: 2947 a4be 43c1 e3bf c641 00be 0f8c 89bf
00000250: 6cbe 293d fc6d f33f 708f 4fbd bb7d d03e
00000260: 274e ccbc a0af 103f 192f 04be 31aa 96bf
00000270: 4ed0 78bf 4ed6 0b40 1fd1 89bd f697 573e
00000280: c242 c33d 92ff 3d3d b230 a0bd d790 3d3e
00000290: 0993 82bd 872b fb3c b137 e33e af8a 08be
000002a0: 127a 093e 9d4f 743b 1298 5dbe 2793 16be
000002b0: fd8f 3d3a 4206 e6bd 580d d23e ea0d 413f
000002c0: c945 f63e dc9c 7abf a231 d83d 715a 2dbe
000002d0: 79fb fe3e bf22 373f e1ab 5fbf 994e 82bf
000002e0: a2e9 f43d 75fa d7bb 899e 4fbf 3c62 b540
000002f0: 29a4 9bbc 0633 fabe d674 083f b4ad 81be
00000300: 5fc1 b3bd 752e c83c f73b 0ec1 9d1a 37be
00000310: cc18 3fbe 0a7e 6c3f 8318 3f3e d1b1 773d
00000320: 6cf2 dd3e 46a2 afbe 8902 ddbd 4a1d 073e
00000330: b58c f83e 032f 48be 7bc1 1d3e 46f8 c0bd
00000340: 41a1 c23f a946 03bc c341 83be 01e9 023f
00000350: 139d 16bf f309 d03f dcdf e13d c374 e03d
00000360: a94a 53bd 0d8e 1a40 c84e 933f efbd 36bf
00000370: c46c e3be 61d9 cbbe 56e1 03be bb4b 30be
00000380: d808 9a3d ed5e bd3c 208b 90bd 6743 0fbe
00000390: 0d7e 133d 55f6 7a3f 7876 323e 799f 40bf
000003a0: 2195 273d d23b c0bc c8bb 743e ac1d e53c
000003b0: 3453 7b3d e12e 013e c5b6 a43f 346c 9f3e
000003c0: 0231 103f 0f86 ee3d 6879 efbd cf14 17bf
000003d0: 7506 a33f 68c6 0d3f c6cd 7b3e 0dd8 143e
000003e0: e821 01bf 57f5 2c3e 6a4c 603e 5cca 09be
000003f0: 354b 07bd fffd 883e e342 dcbb 869c e93e
0.19907561 0.134413 1.1694391 0.13130996 -2.4671562 -0.7966723 -0.1618367 -1.3752503
0.76054305 -2.1256351 -0.015757592 0.4831409 0.7879243 -0.062535055 -0.24943438 -0.030621065
-0.5518249 0.6856507 0.31892684 0.9645601 -0.490693 -1.1307114 0.07284877 0.73835635
0.52939767 0.3166405 0.7392404 0.81428224 0.6410171 -1.4416597 0.44894463 0.17196865
-0.06951179 0.00932871 0.10321557 0.123181224 -0.44524258 -0.1531974 -1.5048164 -0.25204968
0.024850233 -0.0118925655 -0.37593368 0.13508618 0.13332945 -0.012799994 0.67279786 -0.029544758
0.7922381 0.6044869 -0.17483921 -0.46022752 -0.281494 0.5511785 -0.31880265 0.764849
-0.32402626 0.12813385 -0.7077942 -5.831807 -0.027933856 -2.0424612 -0.5462532 -0.9502968
-0.11787064 0.18170433 -0.6253436 0.24803108 0.8087458 0.028489036 -0.3159784 0.31408054
-1.1022968 0.31812975 0.065827824 -1.1078315 -1.2937852 -0.03019088 -0.21074773 0.21918906
0.5912314 1.1614345 -0.14465179 0.83319986 0.5126573 -0.022892738 -0.15382111 -0.9385219
-0.18161088 -0.341975 -0.5136624 0.74711424 0.45789087 0.054538004 0.45703036 0.27026728
0.05403286 0.1753132 -0.082528 0.15532811 0.015058401 0.04164255 -1.5863185 0.6707443
-0.0070635793 -0.23501863 -0.20700675 -0.039627735 -0.07498269 -0.054476395 -1.0443536 0.08255833
-1.3173786 0.8167096 0.022098934 0.74812543 0.20284557 -1.2399822 -1.0766057 0.6475706
0.5126927 -0.021059364 -1.4854113 0.28616026 -0.09012188 -2.295962 1.2323519 -0.82789224
-0.13932365 0.063314304 -0.13441545 -0.08865382 2.2522035 1.0486442 -0.20362684 1.4205369
0.58145976 2.5274088 0.15967697 0.97348183 0.6100399 0.20702252 -0.15900327 0.22881187
-0.3208554 -1.7793354 -0.1252509 -1.0745867 0.041441366 1.901794 -0.050673902 0.40720925
-0.02493961 0.5651798 -0.12908591 -1.1770688 -0.9719285 2.1849551 -0.0672934 0.21054062
0.095342174 0.04638631 -0.07821788 0.18512283 -0.06375701 0.030660404 0.44378427 -0.13334154
0.13425472 0.0037278899 -0.21640041 -0.14704572 0.0007231234 -0.11231662 0.41025805 0.75411856
0.48100117 -0.978956 0.10556342 -0.16929032 0.49801233 0.71537393 -0.8737164 -1.0180236
0.119586244 -0.006591136 -0.8110128 5.6682415 -0.018999176 -0.48867053 0.5330328 -0.25327837
-0.08777117 0.024436215 -8.88964 -0.17881246 -0.18661803 0.9237982 0.18661694 0.060472313
0.43349016 -0.34303492 -0.10791499 0.13194767 0.4854485 -0.19549184 0.15405838 -0.094223544
1.5205461 -0.008012452 -0.2563611 0.51136786 -0.58833426 1.6253036 0.11029026 0.109597705
-0.051584873 2.41492 1.1508417 -0.71383566 -0.4441892 -0.39814284 -0.12878928 -0.17216389
0.07521218 0.023116553 -0.07057786 -0.13990556 0.036008883 0.9803212 0.17428005 -0.75243336
0.040913705 -0.023466025 0.23899758 0.02796825 0.061358646 0.12615539 1.2868277 0.3113724
0.5632478 0.116466634 -0.11693078 -0.59016126 1.2736346 0.5538087 0.24590215 0.14535542
-0.5044236 0.16890465 0.2190415 -0.134561 -0.033030707 0.26756284 -0.0067218407 0.4562723

bias f4 [6]
00000000: c554 103f 95d1 c5be f80b d1bf 2627 3b3d
00000010: 86fe c13e a1d7 063f
0.5637935 -0.3863646 -1.6331778 0.04569163 0.37889498 0.52672774
