models/cnn.pt (torch, 57376 bytes, 6 tensors)

weight f4 [64, 1, 3]
1.4237449 -0.12546343 -1.0576472 -0.7065675 -0.47314233 -0.14141117 0.12369275 0.19940324
0.35277528 0.17098965 -0.08268191 -0.43383428 -0.5298747 0.09689552 0.3220656 -1.677229
-0.6692803 -0.5376991 -0.49687406 0.18575948 -0.93455094 0.25877222 -0.348568 0.055251855
0.69041395 0.15577604 0.9680029 -1.6683375 -0.56947774 -1.390602 0.029466493 0.6488466
0.32665488 0.35354343 0.118907146 -0.64118993 0.18087621 -0.025878685 -0.39780807 -0.48185644
0.097904116 -0.049556646 -0.024201656 0.29733258 -0.63228595 0.2578279 0.8506427 0.2110751
0.44837165 0.08494768 -2.8418407 1.5039232 0.5772916 -2.5441992 0.6087746 -0.026466345
0.7810133 0.42938787 0.040055793 0.75536424 0.34889594 -0.020373652 0.7976884 -1.0637714e-05
0.24614307 0.91433597 2.0393124 -0.0470626 -1.8778139 0.56740665 -0.7285703 0.09650048
-2.5134623 -0.05441516 1.070235 0.42714354 0.4831739 -0.014030059 -0.5506346 -0.3966069
0.37899888 0.57738936 0.8940724 -0.5728573 -1.8829324 -0.41865256 0.7879827 -1.855454
-1.1611587 -0.734832 0.12539013 0.436883 -0.53976655 -0.80748 -0.09558474 0.54325235
-1.0961456 -0.22598834 -1.1935245 0.48177502 0.2690152 0.26998943 1.6150597 -0.0388836
-1.9884737 -1.5686874 -0.6186305 0.11400647 0.36069518 0.79479283 -0.080148846 -0.2424916
0.18011938 -0.12004413 -1.935759 -0.82814336 -1.0492421 -1.0793257 -0.616588 -1.0152515
-0.04819331 -0.30579543 -1.5318985 -1.7693814 -0.5430297 0.92273307 -2.6896067 -0.2521514
2.5917718 0.96784294 0.5205164 -1.5587472 -1.6887025 -0.63765866 0.8710704 -1.1491868
0.3608702 -0.16353875 0.1795247 0.8369583 0.29894003 0.605628 0.20450543 0.3501307
0.87840277 0.051970333 -0.25103995 0.72023416 0.104384534 0.47676334 2.2519355 0.12024644
-2.2480977 0.09983234 0.66697663 -0.86329657 1.6169069 0.20863348 -2.4826713 0.47324502
0.034252673 -1.8105683 0.072229095 -0.32625216 -1.1241285 -0.39453524 -0.13835223 0.14623088
-1.1680725 -0.64227444 0.11384125 -2.2936609 -0.34609038 2.3168464 -1.1965065 -1.4665849
-0.8611726 -0.5451028 -0.13542789 0.6201339 -1.1307817 -1.6034471 -0.67737544 0.85985744
0.69450873 0.9796723 0.40531394 0.77686703 0.24499665 0.35528615 0.06791583 0.8733025
00000000: 463d b63f 7c79 00be fc60 87bf 9ce1 34bf
00000010: b63f f2be 17ce 10be a052 fd3d 5d30 4c3e
00000020: f69e b43e e917 2f3e 2255 a9bd 871f debe
00000030: dea5 07bf 2971 c63d c8e5 a43e 71af d6bf
00000040: f455 2bbf a6a6 09bf 4766 febe bc37 3e3e
00000050: bb3e 6fbf cb7d 843e 8177 b2be c54f 623d
00000060: f8be 303f c183 1f3e 0acf 773f 158c d5bf
00000070: 4bc9 11bf 3fff b1bf b763 f13c d01a 263f
00000080: 4f3f a73e a503 b53e 9785 f33d 0625 24bf
00000090: 9d37 393e 89ff d3bc 80ad cbbe e3b5 f6be
000000a0: f481 c83d e9fb 4abd 8d42 c6bc fa3b 983e
000000b0: 7edd 21bf 0502 843e b8c3 593f 1224 583e
000000c0: f890 e53e 0df9 ad3d b8e0 35c0 8e80 c03f
000000d0: 62c9 133f 29d4 22c0 a7d8 1b3f f3cf d8bc
000000e0: 7df0 473f bad8 db3e 8b11 243d 8d5f 413f
000000f0: 7da2 b23e a5e6 a6bc 4f35 4c3f a278 32b7
00000100: ee0c 7c3e ec11 6a3f 1884 0240 b6c4 40bd
00000110: 355c f0bf 9041 113f 9583 3abf 0ba2 c53d
00000120: 91dc 20c0 6ee2 5ebd 76fd 883f 8fb2 da3e
00000130: 9262 f73e 55de 65bc 64f6 0cbf 0f10 cbbe
00000140: 240c c23e cacf 133f eee1 643f c7a6 12bf
00000150: ee03 f1bf a159 d6be 3cb9 493f 847f edbf
00000160: d9a0 94bf f31d 3cbf 4566 003e 21af df3e
00000170: 242e 0abf 02b7 4ebf efc1 c3bd 9612 0b3f
00000180: 804e 8cbf 7d69 67be 69c5 98bf 37ab f63e
00000190: 5cbc 893e 0e3c 8a3e 47ba ce3f 6944 1fbd
000001a0: 4e86 febf c0ca c8bf 925e 1ebf 397c e93d
000001b0: 0aad b83e 8b77 4b3f 1425 a4bd b84f 78be
000001c0: 3771 383e b2d9 f5bd f3c6 f7bf 3401 54bf
000001d0: 914d 86bf 5827 8abf b6d8 1dbf c3f3 81bf
000001e0: 5966 45bd 3891 9cbe 4015 c4bf 177b e2bf
000001f0: ff03 0bbf 3c38 6c3f 8422 2cc0 fd19 81be
00000200: 97df 2540 8ec4 773f 9040 053f 0785 c7bf
00000210: 6727 d8bf 993d 23bf 78fe 5e3f 8e18 93bf
00000220: fbc3 b83e b476 27be 53d5 373e e642 563f
00000230: ab0e 993e 700a 1b3f df69 513e 5544 b33e
00000240: 01df 603f d8de 543d 4f88 80be 4461 383f
00000250: 8fc7 d53d 531a f43e b61f 1040 c443 f63d
00000260: d5e0 0fc0 e674 cc3d fbbe 2a3f 0101 5dbf
00000270: cef6 ce3f 04a4 553e 16e4 1ec0 2c4d f23e
00000280: 884c 0c3d b4c0 e7bf d9ec 933d 860a a7be
00000290: 71e3 8fbf 8600 cabe 35ac 0dbe 8cbd 153e
000002a0: 6683 95bf 196c 24bf 9a25 e93d 57cb 12c0
000002b0: c232 b1be 3647 1440 2027 99bf 0eb9 bbbf
000002c0: cf75 5cbf db8b 0bbf 9cad 0abe 18c1 1e3f
000002d0: 74bd 90bf c13d cdbf 7a68 2dbf 9e1f 5c3f
000002e0: 53cb 313f cecb 7a3f 4f85 cf3e c2e0 463f
000002f0: 67e0 7a3e 11e8 b53e 7417 8b3d c190 5f3f

bias f4 [64]
-1.0830574 0.41302216 0.17714183 -0.12131187 0.09955743 -0.12796989 0.40892127 -0.059367884
-0.3123389 -0.17644048 -0.89278156 0.17038152 0.28024143 -0.14442468 0.5431134 -1.1515803
-0.079529755 -0.3483439 -1.1882792 -1.0709237 -1.0029341 -1.0120465 -0.2284129 -0.19470342
-0.12992583 -0.8154846 0.026593054 -0.79325026 -0.03876133 -0.14797023 -0.1808335 -0.25587964
-0.15534054 -0.8977609 -0.2742502 -0.11027921 -0.96713483 -0.15042217 -0.15378863 -0.16002026
0.63896066 0.33992612 -0.028868644 -0.5758618 0.15939175 -0.3162479 -1.1479218 -1.0428134
0.21452285 -1.1357756 -0.18650009 -0.21920207 -0.11237899 -0.15998915 0.45542422 0.58646494
-0.11356776 -0.038697176 -1.6953272 -0.34096935 -1.6465774 0.51356465 -1.2433718 -1.1299227
00000000: a0a1 8abf a477 d33e ab64 353e 5c72 f8bd
00000010: c4e4 cb3d 8a0a 03be 215e d13e bd2b 73bd
00000020: e2ea 9fbe d0ac 34be 558d 64bf 7e78 2e3e
00000030: ce7b 8f3e 10e4 13be 7b09 0b3f fc66 93bf
00000040: 7fe0 a2bd 225a b2be 8819 98bf 0714 89bf
00000050: 2560 80bf bd8a 81bf 12e5 69be 5560 47be
00000060: 470b 05be 99c3 50bf add9 d93c 7312 4bbf
00000070: 33c4 1ebd 8285 17be 6b2c 39be a802 83be
00000080: 9711 1fbe a9d3 65bf 866a 8cbe 11da e1bd
00000090: 2696 77bf 4508 1abe c47a 1dbe 5adc 23be
000000a0: ed92 233f cc0a ae3e ef7d ecbc ae6b 13bf
000000b0: 9737 233e 3feb a1be 1aef 92bf e97a 85bf
000000c0: e1ab 5b3e 1861 91bf e1f9 3ebe 8276 60be
000000d0: f526 e6bd 32d4 23be 5d2d e93e 9122 163f
000000e0: 3796 e8bd ee80 1ebd 7b00 d9bf 8993 aebe
000000f0: 0cc3 d2bf f978 033f cf26 9fbf 4fa1 90bf

weight f4 [64, 64, 3]
-0.1510051 -0.29677162 -0.264736 -0.12839441 -0.08318656 -0.15272586 -0.07149687 -0.08952597
-0.093250886 -0.35121354 -0.28068972 -0.32727385 -0.08184852 -0.043464996 -0.03502415 -0.09615174
-0.16458502 -0.02299171 -0.20616293 -0.17540365 -0.18943763 -0.30732927 -0.3421362 -0.26954427
-0.13385974 -0.10154391 -0.19664665 -0.050748553 -0.09776903 -0.024760548 -0.07738332 -0.040539555
-0.22608846 -0.013154403 -0.000117825875 0.014726648 -0.015669288 0.05455762 0.040827323 0.07337423
0.11290238 0.02496504 0.00795611 0.0013299299 -0.033571202 -0.2798039 -0.1451332 -0.22984682
-0.07688501 -0.14019798 -0.10636094 -0.26968873 -0.31618053 -0.2676417 -0.16599445 -0.16384354
-0.23336756 -0.2763119 -0.24185535 -0.24789701 -0.15006886 -0.11419267 -0.24930176 -0.11729155
-0.19796176 -0.34431043 0.049226213 -0.041138273 0.026467478 -0.16840784 -0.13987078 -0.1503986
-0.17327894 -0.27570808 -0.28897274 -0.25829023 -0.14033513 -0.22483243 -0.24185452 -0.15266947
-0.21079895 -0.3341797 -0.04805652 0.044365507 -0.15097824 -0.27487662 -0.27946314 -0.17033164
-0.16208093 -0.12444649 -0.035007842 -0.08013331 -0.056498937 -0.2383756 -0.109933585 -0.12387408
-0.024563752 -0.04194423 -0.055474017 -0.35973725 -0.22502622 -0.30881312 -0.24961802 -0.25399625
-0.24244298 -0.17135844 -0.08236984 -0.06239863 -0.22011831 -0.11730646 -0.19134729 0.15039787
0.06296339 0.1160162 -0.07375656 -0.1261981 -0.008715513 -0.199057 -0.1623336 -0.15160926
-0.18202558 -0.19563803 -0.0994848 -0.13114955 -0.13358253 -0.16524807 -0.060052227 -0.1019896
-0.030845981 -0.1899689 -0.28775826 -0.23163776 -0.16601062 -0.29136038 -0.27859196 -0.03264454
0.006249785 -0.005342858 -0.11050853 -0.06734712 -0.1580263 -0.3365939 -0.33645794 -0.28877622
-0.11053204 -0.06691918 -0.07095497 -0.16048117 -0.08855434 -0.0783137 0.0075181015 -0.09248898
-0.05596005 0.0903497 0.0013759105 0.11996063 -0.31131238 -0.3559026 -0.3747888 -0.16453633
-0.21156666 -0.25029454 -0.2121251 -0.11102664 -0.08558676 0.07197372 0.029751383 -0.03285746
-0.21701357 -0.21211296 -0.113975555 -0.40386662 -0.19464727 -0.24178576 0.40569183 0.40587363
0.46332386 -0.03279653 -0.09501172 -0.1238977 0.4212618 0.3363085 0.38421398 0.052158263
0.09982896 -0.031031182 -0.082320385 -0.11689164 -0.11299347 -0.19160146 -0.14408003 -0.39177832
0.38221478 0.37847206 -0.90001225 -0.7676075 -0.99047726 -1.4466119 -0.020006098 -0.22999366
-0.1813242 -0.8999322 -1.2553532 -1.3705199 -0.3550873 -0.4240484 -0.26893172 -1.4800429
-1.0953311 -1.1614472 -0.87124354 -1.5483254 -1.4209172 0.013787982 0.015836328 -0.00022050897
-0.029738706 -0.038304374 -0.053331442 -1.4958999 -1.3122138 -1.1693114 0.631875 0.52826136
0.5324239 0.04984565 -0.0767276 -0.30638674 -0.15428737 -0.20718071 -0.26177475 -0.31860524
-0.28895912 -0.39368513 -0.4007853 -0.6230678 -0.5751337 1.2675152 0.97830445 0.9481423
-1.5529218 -1.0915495 -1.4917364 -0.63884944 -0.9843032 -1.9313233 1.3054633 1.231331
1.3407686 1.064884 0.9760411 1.082884 1.0271026 1.0269165 1.1034619 0.8020938
00000000: 15a1 1abe 73f2 97be 7a8b 87be d379 03be
00000010: b75d aabd 2b64 1cbe f36c 92bd 6459 b7bd
00000020: 52fa bebd 43d2 b3be 90b6 8fbe 7090 a7be
00000030: 32a0 a7bd 5a08 32bd 7c75 0fbd 34eb c4bd
00000040: fa88 28be 1c59 bcbc 601c 53be 049d 33be
00000050: f0fb 41be 435a 9dbe 7a2c afbe b501 8abe
00000060: 8712 09be 41f6 cfbd bd5d 49be b7dd 4fbd
00000070: 213b c8bd a2d6 cabc 257b 9ebd ce0c 26bd
00000080: bc83 67be 9185 57bc 4919 f7b8 0a48 713c
00000090: e15c 80bc d077 5f3d 8d3a 273d 3a45 963d
000000a0: 5d39 e73d 7c83 cc3c 585a 023c 0b51 ae3a
000000b0: f581 09bd 7542 8fbe cc9d 14be f75c 6bbe
000000c0: e375 9dbd 0f90 0fbe c4d3 d9bd a414 8abe
000000d0: 6ae2 a1be 5508 89be 73fa 29be 9ac6 27be
000000e0: e8f7 6ebe c178 8dbe eea8 77be b7d8 7dbe
000000f0: a7ab 19be d9dd e9bd f648 7fbe 8d36 f0bd
00000100: 7db6 4abe 7549 b0be 6da1 493d 9b80 28bd
00000110: 53d2 d83c 1b73 2cbe 493a 0fbe 1702 1abe
00000120: 0970 31be 9c29 8dbe 3cf4 93be 9e3e 84be
00000130: 03b4 0fbe 793a 66be b6a8 77be 6355 1cbe
00000140: aedb 57be 9a19 abbe ead6 44bd 9bb8 353d
00000150: 0a9a 1abe a1bc 8cbe cb15 8fbe 6b6b 2ebe
00000160: 8bf8 25be cddd febd 6264 0fbd ef1c a4bd
00000170: 6e6b 67bd bc18 74be dc24 e1bd b2b1 fdbd
00000180: ec39 c9bc b7cd 2bbd b938 63bd 7b2f b8be
00000190: 466d 66be c11c 9ebe de9b 7fbe cc0b 82be
000001a0: f942 78be 9678 2fbe 85b1 a8bd b595 7fbd
000001b0: b266 61be 5f3e f0bd 8bf0 43be e601 1a3e
000001c0: f3f2 803d e799 ed3d ae0d 97bd 133a 01be
000001d0: 83cb 0ebc 99d5 4bbe c73a 26be 753f 1bbe
000001e0: ea64 3abe 5655 48be b0be cbbd 114c 06be
000001f0: dcc9 08be ca36 29be 53f9 75bd ecdf d0bd
00000200: b6b0 fcbc 3587 42be 0d55 93be 7332 6dbe
00000210: b0fe 29be 302d 95be 9ba3 8ebe 48b6 05bd
00000220: ffca cc3b 2413 afbb 4c52 e2bd 49ed 89bd
00000230: a5d1 21be 0956 acbe 3744 acbe 7ada 93be
00000240: 9f5e e2bd ec0c 89bd d750 91bd 2d55 24be
00000250: fa5b b5bd ef62 a0bd 685a f63b dd6a bdbd
00000260: 5e36 65bd 4309 b93d e557 b43a ebad f53d
00000270: 5664 9fbe de38 b6be 51e4 bfbe 367c 28be
00000280: eea4 58be 9b26 80be 5237 59be ef61 e3bd
00000290: 1c48 afbd f566 933d 2cb9 f33c 8b95 06bd
000002a0: ce38 5ebe 2434 59be 046c e9bd 9bc7 cebe
000002b0: 9d51 47be b096 77be d7b6 cf3e abce cf3e
000002c0: c938 ed3e a755 06bd 8195 c2bd 14be fdbd
000002d0: a0af d73e a130 ac3e b2b7 c43e e7a3 553d
000002e0: 2073 cc3d 1b35 febc 9797 a8bd e264 efbd
000002f0: 1f69 e7bd 2c33 44be b789 13be 2b97 c8be
00000300: a8b1 c33e 17c7 c13e 3467 66bf ed81 44bf
00000310: eb8f 7dbf 942a b9bf d4e3 a3bc 7583 6bbe
00000320: 0dad 39be f561 66bf 6aaf a0bf 326d afbf
00000330: 01ce b5be df1c d9be 6bb1 89be 0c72 bdbf
00000340: cf33 8cbf 4daa 94bf d109 5fbf 872f c6bf
00000350: 9de0 b5bf fde6 613c 30bb 813c 6d38 67b9
00000360: 969e f3bc 0ce5 1cbd 1272 5abd a679 bfbf
00000370: 9ff6 a7bf ffab 95bf 8fc2 213f 233c 073f
00000380: ef4c 083f f42a 4c3d 5c23 9dbd b9de 9cbe
00000390: 82fd 1dbe 2e27 54be 5707 86be 3a20 a3be
000003a0: 73f2 93be 1991 c9be bb33 cdbe 5f81 1fbf
000003b0: f63b 13bf f03d a23f 2972 7a3f 74b9 723f
000003c0: 24c6 c6bf e5b7 8bbf 38f1 bebf a38b 23bf
000003d0: 4bfb 7bbf 9a35 f7bf 6c19 a73f 419c 9d3f
000003e0: 4e9e ab3f 1e4e 883f d4dd 793f f19b 8a3f
000003f0: 1978 833f 0072 833f 3d3e 8d3f 0556 4d3f

bias f4 [64]
-0.06598469 -0.6414085 -0.61439705 -1.3663085 -1.244736 0.14600225 -1.6099716 -1.8484201
-0.0011047137 -0.24676593 -0.15022919 -0.53911334 -0.5813552 -0.02435115 0.30535358 0.35439363
1.041338 -0.04434723 -0.7734745 -0.4052822 -0.20686693 -0.6208875 -2.005664 -0.6443287
-1.2106305 -2.0379941 -0.5107654 -0.25745213 -1.8473588 -0.106679045 -0.6795752 -1.0654805
0.6445722 -0.030793432 -0.014942254 -0.9900471 -0.5177405 -2.1133962 -0.081083134 -0.49837908
-0.124781646 -0.77736306 -1.2818309 -0.16243282 -0.2017961 -0.8533393 -0.24233279 0.28337687
-0.4499517 -0.17126612 -0.1003751 -0.33622813 -0.18509062 -0.5546933 0.15110394 -0.16839728
-0.26472458 -0.28932574 0.023024108 -0.15842842 0.09775645 0.07529805 0.23232801 -0.9952947
00000000: fb22 87bd 5933 24bf 2049 1dbf 32e3 aebf
00000010: 8253 9fbf 9d81 153e 8d13 cebf 0899 ecbf
00000020: 0acc 90ba 35b0 7cbe aed5 19be 5503 0abf
00000030: b2d3 14bf 107c c7bc 4e57 9c3e 1573 b53e
00000040: 904a 853f 71a5 35bd 6d02 46bf 2681 cfbe
00000050: edd4 53be 7cf2 1ebf cd5c 00c0 baf2 24bf
00000060: f1f5 9abf 7f6e 02c0 85c1 02bf c4d0 83be
00000070: 4176 ecbf 8b7a dabd a4f8 2dbf aa61 88bf
00000080: af02 253f 8242 fcbc 5bd0 74bc ba73 7dbf
00000090: a48a 04bf e241 07c0 ea0e a6bd 8b2b ffbe
000000a0: 858d ffbd 4401 47bf 0913 a4bf ca54 26be
000000b0: a3a3 4ebe 7274 5abf 1626 78be c616 913e
000000c0: 1260 e6be 6360 2fbe 7691 cdbd 1826 acbe
000000d0: 6588 3dbe 6100 0ebf feba 1a3e 5670 2cbe
000000e0: fb89 87be 8122 94be 0e9d bc3c 0f3b 22be
000000f0: 8934 c83d dd35 9a3d 65e7 6d3e a2cb 7ebf

weight f4 [6, 64]
-0.1303457 0.6086352 0.7300959 0.10688175 0.3232964 0.081849076 -2.2148788 -2.9239423
0.027041433 0.06612043 0.058353335 0.861163 0.9021743 -0.39638346 -1.0880699 -1.7718416
0.8031732 -0.28606787 -0.00021686856 0.87852466 -0.1784259 -0.27409253 -3.0463088 0.007924682
1.5498796 -3.429426 0.4751758 0.04118238 -3.2895448 0.06415851 0.6928063 1.5133971
-1.035877 0.0016389149 -0.2591695 1.7804161 0.8223193 0.2576124 0.017504204 0.7412757
0.092051774 -0.6853945 -0.32728967 -0.015554621 -0.08210071 1.3115278 -0.12769976 -0.9997864
-0.010255823 0.011952747 0.024817336 0.79361516 -0.14944866 0.5244026 1.3576826 0.056328263
8.9431414e-05 0.006988866 -0.20437346 -0.13116446 0.11480355 1.3659097 -1.681249 0.119092435
-0.10593101 0.25689104 0.31513208 -0.50701255 -0.13362467 0.05178199 0.038834877 -0.4850077
-0.061932433 0.0111278035 0.10006951 0.78501534 -1.217893 0.674536 -1.3283325 -2.224956
0.0035469434 -0.41409338 -0.069537796 0.8565764 -0.019737927 0.23113692 0.14365622 -1.5399215
1.1592053 0.35070762 0.64000976 0.021191899 0.43835422 -0.024144528 0.6646607 0.99970055
0.2548836 0.016626507 0.51393944 0.9397566 0.79183376 -0.67866373 -0.045365408 0.9021074
-0.13387796 -0.88301146 -0.05402149 -0.015473765 -0.0959246 0.6676278 0.091621235 -1.395447
0.0485191 -0.124261096 -0.1881204 -0.02271996 0.07638227 -1.8131443 -0.6623268 -0.15791026
-2.1106532 0.14859778 0.18426304 -0.1373968 0.009994476 -0.63756037 -1.8135757 0.08751816
-0.03532925 -0.2159659 -0.22714795 0.08198819 0.3235302 0.081604816 3.0820692 3.8705723
-0.15966722 0.024437787 -0.2344425 -1.0437461 -0.00035373398 0.06643727 -0.46155062 -0.15025768
-0.8311818 -0.23996156 -0.07052004 -0.9469764 -0.045596153 -0.114882275 3.6233249 1.6559485
-3.4489765 3.741189 -0.80582386 0.056924887 3.4353907 0.18213929 -0.76513785 -2.931897
0.92532134 -0.03096399 0.14241603 -3.4830241 -0.86306775 0.36122584 -0.009327745 -0.94994736
-0.043347113 1.4060832 0.291277 -0.02649554 0.09992477 -2.4348247 -0.010317539 -0.47513688
0.06318936 0.037088152 -0.28029856 -0.46530682 -0.07192209 1.4651248 -0.3581584 -0.19169101
0.27624238 0.08544111 -0.031304352 -0.019225787 -0.09951066 -0.30326912 -0.29320422 0.12340006
-0.017866688 -0.20653571 -0.32071912 0.2149506 3.410295 0.23576169 0.22354251 -0.04444445
0.06625133 -0.020394437 -0.08981176 -0.45517448 0.9458668 -1.1565918 0.17382081 0.09954531
0.9011764 0.1624509 -0.07476689 0.31951156 0.054185256 2.136796 0.113702044 0.9148389
0.3119248 0.16273618 -1.7083702 -0.09617605 0.15529604 0.010690648 0.35289228 0.19581918
0.79694057 -0.01852493 -0.6450727 0.25625497 0.38757706 -0.16212897 -0.22642173 0.27526414
0.007856828 0.99433553 0.12494809 -0.11073819 -0.03755502 0.12436672 -0.20422058 0.15691298
-0.08357183 -0.029526567 0.61517715 -3.9011455 0.31422028 -0.27276677 -8.871055 0.03915324
0.37410277 -0.038906444 0.044642176 -0.09316651 -0.11204832 -8.9050665 0.15692447 0.009662172
00000000: 5879 05be 84cf 1b3f 91e7 3a3f d2e4 da3d
00000010: 1b87 a53e 7da0 a73d 93c0 0dc0 df21 3bc0
00000020: ff85 dd3c 266a 873d e803 6f3d 2e75 5c3f
00000030: e5f4 663f c6f2 cabe e045 8bbf b5cb e2bf
00000040: c29c 4d3f 7d77 92be 3667 63b9 fee6 603f
00000050: 47b5 36be db55 8cbe b9f6 42c0 87d6 013c
00000060: 7462 c63f b77b 5bc0 3e4a f33e dbae 283d
00000070: e787 52c0 8965 833d c15b 313f ffb6 c13f
00000080: 9e97 84bf dcd0 d63a ddb1 84be ade4 e33f
00000090: 8583 523f c6e5 833e fa64 8f3c 3fc4 3d3f
000000a0: a485 bc3d 0476 2fbf 8392 a7be cfd8 7ebc
000000b0: 6b24 a8bd 25e0 a73f bac3 02be 00f2 7fbf
000000c0: 0a08 28bc 74d5 433c ba4d cb3c 5d2a 4b3f
000000d0: 1209 19be 403f 063f 8bc8 ad3f 77b8 663d
000000e0: 208d bb38 db02 e53b 4747 51be fa4f 06be
000000f0: 201e eb3d 21d6 ae3f 2b33 d7bf bce6 f33d
00000100: 5bf2 d8bd 3987 833e fe58 a13e 93cb 01bf
00000110: e8d4 08be 5a19 543d 5211 1f3d ee52 f8be
00000120: ddac 7dbd 6451 363c 3ef1 cc3d c4f6 483f
00000130: ebe3 9bbf 64ae 2c3f cd06 aabf ae65 0ec0
00000140: d673 683b 0c04 d4be d569 8ebd 9748 5b3f
00000150: 6fb1 a1bc 28af 6c3e 9e1a 133e 261c c5bf
00000160: d760 943f f38f b33e aed7 233f a29a ad3c
00000170: f76f e03e bfca c5bc 3427 2a3f 60ec 7f3f
00000180: 1a80 823e 5034 883c 8991 033f e393 703f
00000190: 9eb5 4a3f e8bc 2dbf 14d1 39bd 83f0 663f
000001a0: 4e17 09be 0a0d 62bf a345 5dbd ad85 7dbc
000001b0: 1e74 c4bd a8e9 2a3f eaa3 bb3d 029e b2bf
000001c0: f7bb 463d 9a7c febd a2a2 40be 361f babc
000001d0: 4f6e 9c3d 1d15 e8bf 408e 29bf 3ab3 21be
000001e0: f114 07c0 042a 183e 73af 3c3e bfb1 0cbe
000001f0: dfbf 233c 2837 23bf 4023 e8bf b93c b33d
00000200: 67b5 10bd 2a26 5dbe 7999 68be 6de9 a73d
00000210: c0a5 a53e 6d20 a73d 9f40 4540 75b7 7740
00000220: ce7f 23be c131 c83c b211 70be 7999 85bf
00000230: 5f75 b9b9 4310 883d 5d50 ecbe 26dd 19be
00000240: 55c8 54bf 7cb8 75be d06c 90bd 0c6d 72bf
00000250: 08c3 3abd 6647 ebbd 8ee4 6740 1ff6 d33f
00000260: 08bc 5cc0 a46f 6f40 794a 4ebf 122a 693d
00000270: 71dd 5b40 b982 3a3e 13e0 43bf 33a4 3bc0
00000280: dce1 6c3f 32a8 fdbc 82d5 113e dee9 5ec0
00000290: 02f2 5cbf 98f2 b83e 66d3 18bc c02f 73bf
000002a0: be8c 31bd 89fa b33f 4222 953e 2d0d d9bc
000002b0: 5ca5 cc3d 2bd4 1bc0 e50a 29bc 2445 f3be
000002c0: 6c69 813d bfe9 173d 4b83 8fbe b23c eebe
000002d0: e44b 93bd 3689 bb3f 8a60 b7be a64a 44be
000002e0: a46f 8d3e c0fb ae3d fe38 00bd 667f 9dbc
000002f0: 3fcc cbbd 1746 9bbe dd1e 96be 2cb9 fc3d
00000300: 295d 92bc 197e 53be 4c35 a4be 031c 5c3e
00000310: 4642 5a40 836b 713e 54e8 643e 620b 36bd
00000320: c7ae 873d 3c12 a7bc 3aef b7bd a10c e9be
00000330: 5424 723f 330b 94bf 15fe 313e 69de cb3d
00000340: 7fb3 663f 8759 263e 621f 99bd 0597 a33e
00000350: 5cf1 5d3d 44c1 0840 9edc e83d e232 6a3f
00000360: 9bb4 9f3e 50a4 263e e0ab dabf f3f7 c4bd
00000370: ed05 1f3e d427 2f3c 4cae b43e d384 483e
00000380: 4c04 4c3f 98c1 97bc 7c23 25bf da33 833e
00000390: 8070 c63e 2305 26be 19db 67be 6cef 8c3e
000003a0: edb9 003c c68c 7e3f c9e4 ff3d b4ca e2bd
000003b0: 4bd3 19bd fbb3 fe3d 331f 51be ccad 203e
000003c0: b527 abbd b3e1 f1bc 407c 1d3f 5eac 79c0
000003d0: 7be1 a03e 16a8 8bbe d7ef 0dc1 265f 203d
000003e0: 668a bf3e 5d5c 1fbd b7da 363d 15ce bebd
000003f0: 9779 e5bd 277b 0ec1 cfb0 203e 164e 1e3c

bias f4 [6]
0.1179958 -0.123110235 -0.7268451 -0.1551532 0.272068 0.4576501
00000000: c8a7 f13d 3821 fcbd 8512 3abf 7be0 1ebe
00000010: 7f4c 8b3e 1d51 ea3e
