models/provided_BiLSTM.pt (torch, 989352 bytes, 10 tensors)

weight_ih_l0 f4 [200, 561]
00000000: 0825 7f3c cae9 103e eb24 fd3d 9c1d 4dbd
00000010: fd97 6bbd be85 5c3d 4d24 9c3d 4439 abbc
00000020: 124e f6bd dad0 8b3d ed70 7ebc b92f 31bc
00000030: 075f c1bd 76b3 203d 33bd e03d 7209 07be
00000040: 716e a93d 0ab3 be3d e4ff 7abc 987b 9a3d
00000050: 19c1 513d 5ad6 b1bc 5f95 1c3e 086b eabd
00000060: 0725 a93d 9fd8 003e e75d bb3d 97b9 efbd
00000070: ec3d 07be 8e28 8c3d bff0 823d ed11 2dbe
00000080: 5625 7fbd f8ef d23c 1ab3 8abd fc45 a33d
00000090: 8202 a53d 0b30 653e ee0d 2f3e 16b6 3dbd
000000a0: b577 0dbe 7efc 423d 618c e83d 03fc 513d
000000b0: aab1 0b3e 3fa0 4d3e a588 2f3e 0c0f fcbc
000000c0: 358d 393d 5f02 08be 8b81 273e 1848 273d
000000d0: fbe2 bdbd a141 43bd 0b13 bd3d 11a8 033e
000000e0: 900c 693d 9ed6 ee3d c7d2 adbc 5d7a b63d
000000f0: e688 4b3e acf5 173e 4841 183d 7710 fe3c
00000100: c40f 62bd 16a3 223c fb82 32bd 9cc4 083e
00000110: eb40 3dbe bb90 2c3e d016 a0bd 7996 42bc
00000120: 4440 393d b624 c53d 6159 803d 25dd 063e
00000130: 63ad d03d 6899 a5bd c101 103d 441c 06be
00000140: 3122 aabb 111c 94bb 982a cdbd f382 d7bd
00000150: 5144 da3d ad34 94bd 04c7 dabd e464 aabd
00000160: c5f0 85bd 3c49 eb3d 384f 553d d5ba a83d
00000170: 3e56 01be d27d 383d 0b79 04be 9032 783d
00000180: eea9 a2bd d001 173e d6c2 ccbd a8f7 d5ba
00000190: 018d 813d 6001 133e fc55 3cbd bf93 073d
000001a0: d856 05be 05a1 853c 0a89 33bd 5f25 1abe
000001b0: 9690 b93d f08a ddbc a21c 7dbe a9e7 2f3d
000001c0: 0023 cdbb 5f3d 65bd 50bf 2cbe ca28 cd3b
000001d0: 7006 bfbd 6d70 ea3c 3871 63bd b17d 86bd
000001e0: 8f22 1f3e 1224 b3bd ee10 34be a8bb a8bd
000001f0: e3c7 eebc 7454 d9bd 443b 623d a148 02be
00000200: d39a 4d3d e6ca 6abc 6369 38bd 94f0 9bbd
00000210: 5c0b 88bd 1977 2abe 3d74 c3bc 1938 ecbd
00000220: 8603 563d ed05 05bd 3472 593d 114e ea3d
00000230: dc8e abbc e99d 78bd 4899 6d3d f1e0 a93c
00000240: 0547 d2bd 1dd6 963c e603 0bbe 74d6 00be
00000250: 2887 6bbd a188 0bbb d8c3 e2bd b121 93bd
00000260: bfb5 71be 7939 9d3d 12fa 773d 9085 d73c
00000270: 7570 1abe 3b21 6f3d e600 623c e183 c13a
00000280: d321 7fbd 3379 97bd 058d 823d 08d5 bbbd
00000290: ed98 d6bd 93ac f0bc 5613 eabd 0c8c cebd
000002a0: 5e85 01be 8f6e e13d 892b 72bd c4fe 033e
000002b0: 0cb7 3b3d 663d ef3c f557 3c3d 70a0 95bc
000002c0: 80c7 afbd c4d0 0bbd 11cb c6bd 0094 f33d
000002d0: 7209 d2bd f27f fa3c 6135 82bb 4879 0b3e
000002e0: 2723 fe3d ff60 bdbd 93c2 7a3d a777 a83d
000002f0: 2819 5ebc 4714 95bb 3878 593c 9243 03be
00000300: e063 83bd b6df d8bd 01ee c3bc 3b89 04bd
00000310: be6e e3bd 275f 193e 1b04 14be 99e9 343d
00000320: 0b71 00be 397b 113e 2eab 04be 61f3 b03c
00000330: c818 2d3e d3bd ae3d 56b9 dcbd a3b9 0c3d
00000340: 10fd f2bd bdd0 843b 06a5 efbc bbd1 0cbd
00000350: 2566 4f3d 670a 4f3d f1ed 7fbc 53e9 0f3e
00000360: 52d8 bfbd 9bcf 19bd e048 09be 03a2 f5bb
00000370: a150 0bbc ce15 b63c f5aa 87bd aa21 bd3c
00000380: cf3b 5bbd e129 143e 1d35 fd3d 6d49 d43d
00000390: d277 123d 0b5f 303c c17d d3bc b40a fc3b
000003a0: dc83 823d e453 9fbd 8547 5c3d 08fb 82bd
000003b0: e357 913d f899 053e 903a da3d f01f 3c3d
000003c0: a38a a33b 6c0d 7abc d704 b03c 7aae d13d
000003d0: 76e3 0b3e 69fc 0a3d 6fe8 e0bd f889 213e
000003e0: f6e2 3cbe 15d3 b23d 70f5 18be 09cb 063e
000003f0: cf8a 0e3d 3dff bc3d d618 043e d9a5 5d3d
0.015572794 0.14151683 0.12360557 -0.050077066 -0.057517994 0.053838484 0.07624111 -0.02090133
-0.120266095 0.06826945 -0.015529853 -0.010814601 -0.09441953 0.039233647 0.10973587 -0.13187197
0.08273018 0.09311493 -0.015319798 0.07543105 0.051209543 -0.021708656 0.15291356 -0.11446196
0.082590155 0.12582634 0.0914877 -0.1170532 -0.13207215 0.06843673 0.06393575 -0.1690137
-0.062291466 0.025749192 -0.06772442 0.07972333 0.08057119 0.22381608 0.17095158 -0.04631623
-0.13815196 0.047604077 0.113549 0.051265728 0.13641992 0.2008066 0.1714197 -0.030768894
0.04530068 -0.13282155 0.1635801 0.04084024 -0.09271809 -0.04767001 0.09232148 0.12857081
0.056896746 0.11662029 -0.02121867 0.08910058 0.19876441 0.1483981 0.037171632 0.03101371
-0.055190817 0.009926578 -0.043581944 0.1335625 -0.18481795 0.16852085 -0.07816851 -0.011876696
0.045227304 0.09626143 0.06267048 0.13170297 0.10189321 -0.080859005 0.035157923 -0.1309672
-0.005192064 -0.0045199473 -0.1001789 -0.105230235 0.106575616 -0.072366096 -0.106824905 -0.083200246
-0.06540064 0.11488578 0.052077502 0.082387604 -0.12630555 0.045041867 -0.12936799 0.060595095
-0.07942568 0.14746785 -0.099980995 -0.0016324418 0.063257225 0.14355993 -0.04598044 0.033099886
-0.1302141 0.016312132 -0.043831863 -0.15053318 0.09060781 -0.02704379 -0.24717954 0.042945538
-0.006260276 -0.05596673 -0.16869855 0.006260966 -0.093274 0.028618062 -0.055527896 -0.065669425
0.15540527 -0.08747114 -0.17584583 -0.082389176 -0.029148048 -0.10611811 0.0552323 -0.12723018
0.05019648 -0.014330601 -0.04502238 -0.07614246 -0.06642792 -0.16646995 -0.023859138 -0.11534137
0.052249454 -0.032476354 0.05308743 0.11440671 -0.020942144 -0.06069747 0.05800751 0.020737143
-0.10267452 0.018412644 -0.13575706 -0.12581807 -0.057501942 -0.0021291154 -0.110725105 -0.071841605
-0.23604487 0.07676978 0.06054122 0.026308805 -0.15081961 0.0583813 0.0137941595 0.0014764034
-0.062288117 -0.07396164 0.063745536 -0.09171492 -0.10478387 -0.029379165 -0.11429469 -0.100853056
-0.12648532 0.110074155 -0.05912355 0.12890154 0.045828864 0.029204082 0.04598232 -0.01826498
-0.085829735 -0.03413464 -0.097067006 0.11893463 -0.10255708 0.030578587 -0.0039736484 0.13620484
0.124090485 -0.09247016 0.061220717 0.08225947 -0.013555802 -0.0045495364 0.013273291 -0.12818745
-0.06415534 -0.105895445 -0.0239172 -0.032357436 -0.11105107 0.14977704 -0.14454691 0.04416809
-0.12543122 0.14207162 -0.12955925 0.021600427 0.16903985 0.085323 -0.107775375 0.034356724
-0.11864674 0.004053204 -0.029253494 -0.034379702 0.050634522 0.05054703 -0.0156206945 0.1405385
-0.09367432 -0.037551504 -0.13406706 -0.00749612 -0.00850311 0.022227194 -0.06624404 0.023087341
-0.053523835 0.144691 0.12363646 0.10365567 0.0357588 0.0107648475 -0.0258168 0.0076917056
0.063728064 -0.07779673 0.053779144 -0.06395537 0.07096841 0.13047016 0.10655701 0.045928895
0.004990892 -0.015261989 0.021486683 0.10238357 0.13660988 0.033932123 -0.10981833 0.15775287
-0.18445954 0.08731667 -0.14937377 0.1316339 0.034800347 0.0922837 0.12900099 0.054113243

weight_hh_l0 f4 [200, 50]
00000000: 8188 203e 7a44 bbbd 0160 2cbe d31c f13d
00000010: 5bc4 3cbe db5e 1a3d 40c7 dd3d 53b2 a9bd
00000020: 402f 9e3c e918 4ebc 0109 2cbe 34d8 1d3c
00000030: cd67 49bd a120 a73d 8a93 913d 27bb 4ebc
00000040: 6225 e8ba 2e17 1f3d 4b69 04be 5f07 953d
00000050: ecda bbbc 980a e33d 3f06 6d3c 8b37 c33d
00000060: 624c ed3b 9dbb c03c dfcb c43d 57ca eb3d
00000070: 360e e9bd cf5d c83c e5c9 d2bd 6940 bcbb
00000080: 7cd0 18bd 8da4 373e fa9b 17be 9187 e23c
00000090: ce53 e2bd 0f99 f5bb 712e 173e 43eb 423e
000000a0: 1fff c8bc 5d28 d8bc 9ca8 143e 6318 7abb
000000b0: f1d7 56be 2d35 cb3d 9e2b 893d 5bba a33b
000000c0: 59ea 3a3e 783d a7bd e901 44bd a184 1b3e
000000d0: 2715 d9bd 2ebb 643d 898f 443d 89a7 8cbc
000000e0: 45ac 45bd 104d 093e 1791 6b3d 741a f3bc
000000f0: 7d20 09be 330e c7bd 82fc ebbe 2b95 673e
00000100: f812 9b3d d653 35bd c850 d33d 2747 f4bd
00000110: 87d0 213d 3307 903d 6a2c f23c 2433 abbd
00000120: 8c44 c63d 8f7a d93d 63e7 2fbc 19f4 153d
00000130: f8e7 e93c b452 013e 12aa 12be 5de0 64bd
00000140: 28b7 eb3a 4ac0 e8bd 1f60 ef3c f09d 91bb
00000150: b44f fa3c 022d 173d 3e79 893e bfb6 ea3d
00000160: e347 233e d314 223c fdd9 adbd 6b90 a23d
00000170: 33bb e13d 227c ddbd 1cb2 7dbd ede8 f5bd
00000180: 359a a03d 40c4 f2be d08f e7be e149 53bc
00000190: 36e3 0bbc 6e12 a0bd 91b8 8ebe db6c e2bd
000001a0: 45e4 ffbe b222 673c c63d 59bd d42c 58bd
000001b0: 0cc1 953d c135 29be 5389 6ebd e66e 9c3d
000001c0: c54f 03bf 0d3f f9bd fb8a 043e 48a1 883b
000001d0: f591 01bd b1c4 ce3d ffc2 a23d 29b0 f83c
000001e0: 65cd 4f3d 66c3 953d d865 283e 45b3 c33c
000001f0: f017 19be cccc 1bbd 4090 42bd 4865 7f3d
00000200: cba0 a13d 2f8c 88bd fcdd 26bd 9ecb 11be
00000210: 00b9 383e 0c1c c63d 7668 8b3d ad6f 9d3e
00000220: 1412 d33d 7a2e 2e3d 8f1c 7c3d 64ff 103e
00000230: 2dc8 66bb dd30 43bd 34be 6f3d cdf8 113e
00000240: a6f0 05bf 3634 803e 0409 a3bc 6214 8f3d
00000250: de02 543e 7e28 603e 9d4a 9ebd 9976 c6bd
00000260: 566c ccbc 897e 943d 3c22 fabd 1a29 2abe
00000270: 28e6 bfbb b821 8e3d 795c 2cbe cfaa 133e
00000280: 2ff1 363d 8f9a af3e df50 0cbf ef3f 5a3e
00000290: 1168 d0bc a85d 50be 9abc 953d 65c1 2fbe
000002a0: 8500 a2bd 76f9 983d 23e2 47be c999 76be
000002b0: f859 b53d e4d6 d93c 2f51 bdbc 82c0 4e3d
000002c0: 5836 18be 61d4 513c b272 593c b468 69be
000002d0: 18e7 163e 3fbe c1bd a3ff 6fbc ba32 b23d
000002e0: 7de5 01be fa28 ad3c cc2c cf3e 7623 49be
000002f0: f7c6 d83d 0bad 14be b864 72bc 3e72 26bd
00000300: c63e 58be 1afd b1be c6bd e7be 3500 ff3b
00000310: 1a43 e2bd 642d 06bf 2bb7 80be 7aa8 bdbe
00000320: 5843 913d 7b94 7c3d e371 b4bd aaae 86bd
00000330: 7df7 00be c719 96bf 9c01 ca3c 1147 78bb
00000340: 16df 9cbd 1047 413e e0db 85bd 13e6 c63d
00000350: 53d7 7fbf 89e9 ddbe 27f4 2abd 2800 57be
00000360: acd5 8ebe b916 23bc 4f19 c9bc cfc2 ea3d
00000370: f406 b5be 6424 11bf 1a3f 81be a6dd c5be
00000380: e237 97be dbe2 293e daff 243f 1b80 e63e
00000390: eed8 2fbd 5cef 75be 3dec 5fbe b88f 2c3e
000003a0: b31c 023f fec6 a93d 7935 713d 20d7 53bf
000003b0: bfb5 5d3f 7c9e 82be 2f41 343e cadb 47bf
000003c0: ea53 033f 88ee 1d3e aa9c 4abd 0fc2 25bd
000003d0: 0a0d 80bf 1cea d03e a401 53bf fbef 96bf
000003e0: e86c 2dbf 1b89 063f 7aa6 963d 2c84 033d
000003f0: b306 4d3c 8e48 423c b991 4a3f ae50 ed3e
0.15677072 -0.0914392 -0.16833498 0.11773076 -0.18434279 0.037688117 0.108290195 -0.08285966
0.01930964 -0.012579181 -0.1680031 0.009634066 -0.049171258 0.0816052 0.07108219 -0.012617863
-0.0017711336 0.038840465 -0.12930791 0.072767965 -0.022931539 0.11086005 0.014466821 0.09532078
0.0072417716 0.023526961 0.09609198 0.11513203 -0.11379664 0.024458794 -0.102924146 -0.005744983
-0.0373082 0.17933865 -0.14805594 0.027652534 -0.11051141 -0.0074950526 0.1476381 0.19035058
-0.024535714 -0.026386434 0.14517444 -0.0038161508 -0.20980813 0.09922252 0.066977724 0.0049965805
0.18253459 -0.08166021 -0.047853384 0.15187313 -0.105997376 0.05584257 0.04798845 -0.01716973
-0.048259992 0.13408303 0.057511415 -0.0296757 -0.133913 -0.09719505 -0.46091086 0.22615497
0.075719774 -0.044269405 0.10318142 -0.11927634 0.039505508 0.07032623 0.029562194 -0.08359364
0.09681043 0.10619079 -0.010736319 0.036609743 0.028552994 0.12629205 -0.14322689 -0.055878032
0.0017983662 -0.11364801 0.029220639 -0.0044438764 0.030555584 0.036908157 0.26850313 0.11460637
0.15945391 0.00989266 -0.084888436 0.07937702 0.110220335 -0.10814692 -0.061937436 -0.12007318
0.07841913 -0.47415352 -0.45226908 -0.012896032 -0.008538058 -0.07816015 -0.27875188 -0.11055919
-0.49978843 0.014107393 -0.053037427 -0.052777126 0.073122114 -0.16524412 -0.05823643 0.0763834
-0.51293594 -0.12170229 0.12943642 0.004169617 -0.031633336 0.1009611 0.07947349 0.030357437
0.05073299 0.0731266 0.164451 0.023889193 -0.14950538 -0.038037106 -0.04750085 0.06235245
0.07891997 -0.06667363 -0.040739045 -0.1423783 0.18039322 0.09673318 0.06807034 0.30749264
0.103061825 0.042524792 0.061550673 0.14159924 -0.003521453 -0.04765402 0.058531 0.14255066
-0.52320325 0.25039834 -0.01990176 0.069863096 0.20704219 0.21890447 -0.07729075 -0.096905895
-0.024954002 0.07250697 -0.12213561 -0.16617242 -0.005856294 0.06940025 -0.1683215 0.14420627
0.044663604 0.34297606 -0.548109 0.21313451 -0.025440248 -0.20348227 0.073113635 -0.17163618
-0.07910255 0.07469456 -0.19519858 -0.24082102 0.08855051 0.026591726 -0.02311 0.05047656
-0.1486448 0.012806983 0.013271974 -0.22793847 0.14736593 -0.09460115 -0.014648351 0.087010816
-0.12685199 0.021137703 0.40463865 -0.19642434 0.105848245 -0.14519136 -0.014794521 -0.040636294
-0.21117696 -0.34763414 -0.45261973 0.007782007 -0.11047955 -0.5241301 -0.25139746 -0.370426
0.07092923 0.06166504 -0.08810785 -0.06576283 -0.1259441 -1.1726617 0.02465897 -0.0037884156
-0.07659738 0.18874764 -0.065360785 0.09711852 -0.99937934 -0.43342236 -0.041736748 -0.20996153
-0.27897394 -0.009954148 -0.0245482 0.11462938 -0.35356867 -0.5669615 -0.25243455 -0.38645667
-0.29534823 0.16590445 0.644529 0.45019612 -0.04293149 -0.2401709 -0.21867462 0.168517
0.5082504 0.08289908 0.058888886 -0.8275013 0.8660545 -0.2551154 0.1760299 -0.78069746
0.5129992 0.15423024 -0.049465813 -0.04046827 -1.0003979 0.4080361 -0.8242438 -1.1791986
-0.677443 0.52552956 0.07355972 0.03210847 0.012513804 0.011858119 0.79128605 0.46350616

bias_ih_l0 f4 [200]
00000000: 27a8 45be 3a66 fd3c 0903 b23d 4651 9bbe
00000010: b06a aa3e d335 303e 1811 b0bd adf3 bebd
00000020: 682b 68be 8b6f cc3d e01a 76be 3610 adbe
00000030: 7ff5 923e 5aac 39be d197 5f3e 9244 39bd
00000040: cfe3 94bd 118a ed3d 351e 95bc b533 f83d
00000050: 9a0d f33e b7d2 d63d 0f3a a33c dade bc3d
00000060: 42ee 733e 0125 bbbd f4c2 0c3e 899e d33d
00000070: e86f f23c f74a 27bd babc 823d c82f e6bd
00000080: 48b5 c0bb 1baf d6bd 7f67 a8bd b342 e7bd
00000090: e8bb a43d fba6 6bbd 6c08 89bd 6378 863e
000000a0: 80ae 2c3e d113 0c3d 176f 393e 59a1 873c
000000b0: dc24 1d3e 88c1 ee3d 5f66 013e 9276 673e
000000c0: d12f 1a3e fcf3 ca3d eb95 0abe 0514 513d
000000d0: 2d6f f4bd ad03 3fbe 1423 ffbd 70ee 1c3d
000000e0: ff9a 013e 2f84 c13d bae7 ebbd 81ce b4bc
000000f0: e7d0 a1be 5004 193e d48b 243d 2661 a2bc
00000100: 50f2 a83c 40bd 023a a74d 883c 0ad6 c1bc
00000110: d361 01bd abee 3dbd 0087 f63d 074d b63e
00000120: 1b68 213e 2717 24bd 74cf 9b3e 196e c03d
00000130: dcc8 93be 1982 483d 63ac 44bd 2d83 f23b
00000140: 8952 a33e ce54 ed3d 7c7d 803e 76cb f9bd
00000150: 081e 01bd 2268 90be 3bd0 233e d769 c13d
00000160: 61df 853d fdf5 26be c2b5 e4bc 608e 983d
00000170: dc38 943d 3cab 18be 53f2 323e 70f4 64bd
00000180: 9768 d73b 786f 543e 4dbb 573e 5d48 7c3e
00000190: b9a2 1abd 24a9 6f3d 701b 6cbc ffde 53be
000001a0: 176b 82bc 7468 f7bd 78e4 eabd 1d2c e03d
000001b0: 22e9 38be c63c 153d bdce 8f3d 918b 1a3e
000001c0: 4979 9fbd 2a02 fdbd 69b2 203d 5e2f 813d
000001d0: 551f 1ebd 0b8d 21be 4725 d13d 587b 10be
000001e0: adee 08be 29ab 1cbd 76dc 11be 78ab bb3c
000001f0: 242b 3bbe 436d 45be 4745 c83c 2bb3 45bd
00000200: 59de c73d d8fe 9b3d 58fb 24bd 40ef 41be
00000210: d39a 313e a674 e5bd 7e7f 0d3e 9bdd 57be
00000220: 697e d23c 5cd8 5abe ce53 b53d 2a02 283e
00000230: 0a52 133d 0069 6cbc 40b5 073e a639 85be
00000240: f7b0 0ebe f2da d03d c39f e3bd a0ba 51be
00000250: 6a03 aabd 8492 0f3e 8cbf 15be ad50 8cbd
00000260: 062c 37bd c334 ebbc 6007 44bd e86d f43d
00000270: 71b2 d63b 8418 853b 974e a1bd 4ab9 f4bd
00000280: 3782 77bd bbf7 cf3d 42d6 9e3e 112e 553e
00000290: be8e d9be 2cba 05be 6efd 89be 99d4 82bd
000002a0: c652 5cbd af05 8bbe 1fb5 893e 7067 2bbe
000002b0: 7afa 89be f4ff 36be 938a 96bd 2883 77be
000002c0: 8c5b ce3d 7f50 963e 3853 b7bd 679a 97be
000002d0: 608e adb9 195f 083e 8fc8 263e 8839 21be
000002e0: c61c dbbc 112b fdbd d8a2 1f3e a869 233e
000002f0: 34b6 06be 09f2 6e3d 1173 083c fb9b 9a3d
00000300: 8593 96bd ea44 33bd 893d c03e ffd7 003e
00000310: d958 cd3b 840e dc3d c46f 8b3e 7e00 7b3e
-0.19302426 0.030932534 0.08691985 -0.30335444 0.3328452 0.17208032 -0.085970104 -0.09323821
-0.22672808 0.09982213 -0.2403369 -0.3380143 0.28702924 -0.18132153 0.21835257 -0.04523141
-0.072700135 0.115986 -0.01820288 0.12119237 0.47471315 0.104894094 0.019925145 0.09222193
0.23821357 -0.09137917 0.13746244 0.103329726 0.029594377 -0.040842976 0.06383653 -0.11239582
-0.0058809854 -0.104826175 -0.08222865 -0.11292019 0.08043653 -0.05753229 -0.066910595 0.26263723
0.16863441 0.034198586 0.18108784 0.016556429 0.15346092 0.11658007 0.12636708 0.22603825
0.15057303 0.099098176 -0.13533752 0.051044483 -0.119352676 -0.18653746 -0.124578625 0.03831333
0.12656783 0.0944904 -0.11518808 -0.022071125 -0.31604692 0.14943051 0.040172413 -0.019821715
0.020623356 0.0004987307 0.01663859 -0.023661632 -0.031587433 -0.04637019 0.12037468 0.35605642
0.1576237 -0.040061142 0.30431712 0.093959995 -0.2886418 0.048952196 -0.048015963 0.0074008913
0.31898907 0.11588441 0.25095737 -0.1219701 -0.03152278 -0.28204447 0.15997402 0.094440155
0.06536747 -0.16304775 -0.0279187 0.07449031 0.072374076 -0.1490907 0.17475252 -0.055897176
0.0065737474 0.20745647 0.21067543 0.2463698 -0.03775284 0.058510914 -0.0144108385 -0.20690535
-0.015920205 -0.1208047 -0.11469358 0.10945914 -0.18057683 0.03643491 0.07021854 0.15092303
-0.07786805 -0.123539284 0.039232645 0.06307863 -0.0386041 -0.1577646 0.10212188 -0.14109552
-0.13372298 -0.03824917 -0.14244255 0.022908911 -0.18278176 -0.19279961 0.024447097 -0.04826657
0.09759206 0.07616967 -0.040278763 -0.18938923 0.17344217 -0.112038895 0.13818166 -0.2108063
0.025695043 -0.21371597 0.08853875 0.16407076 0.03596691 -0.014429331 0.13252735 -0.26020545
-0.13934694 0.101980105 -0.111144565 -0.20481348 -0.083014324 0.14020735 -0.1462385 -0.06851325
-0.04471972 -0.028711682 -0.047858596 0.119350255 0.0065520336 0.0040617604 -0.07876318 -0.119494036
-0.060426917 0.10154673 0.3102284 0.20818354 -0.42491716 -0.130593 -0.26951164 -0.06388206
-0.053789876 -0.27152774 0.26895997 -0.16738677 -0.2694891 -0.17871076 -0.0735065 -0.24171126
0.10076055 0.2935829 -0.089514196 -0.29609987 -0.0003310321 0.13317527 0.16287445 -0.15744603
-0.026747119 -0.1236173 0.15589464 0.15958273 -0.13155442 0.05833629 0.008328215 0.07549282
-0.07352356 -0.043766893 0.37546948 0.12582396 0.006266695 0.10744956 0.27233708 0.24511907

bias_hh_l0 f4 [200]
00000000: 9956 fabd f287 61be 9510 133e bf01 27be
00000010: 8b7b 0d3e 1eb4 a63c f433 133e 499d b2bd
00000020: 58f2 53be 076d 16be ce40 9dbd 4139 a5be
00000030: 2b64 ed3e 8122 01bd a7e8 f63c d8af 8c3d
00000040: f322 f83d b2a2 40bd af3b 133e 9b94 8cbd
00000050: 9781 033f 8b5f 243d 4917 193e 9691 233e
00000060: abcf 5e3d 1a5f 1c3e eb51 5a3e 2b36 5c3d
00000070: 13f3 d1bd 05ff 0d3d 05a8 913d 1015 f9bd
00000080: dda3 263d 5b61 243b 8b3c 33be f501 45bd
00000090: 4498 a33e 7218 e0bd eab8 d2bd 84ff e53a
000000a0: 439f 5d3d 3eaa f83c 9c4e 193e 46f3 753d
000000b0: c2e5 5e3e b102 0bbd d440 723d 4e0c 893d
000000c0: 08ee e53d 1a46 653e e395 94bd 0be3 a23c
000000d0: 3781 cc3d adc4 14be 13c8 7fbe 44f5 b83d
000000e0: 69b5 1cbd f7fa 833d 0d3b 853c 6015 cfbd
000000f0: d82e 00be 9fb1 3c3e 54d9 eabd 53ae ce3c
00000100: 6aa9 073d 1e25 d9bc ea97 4b3e b031 36bd
00000110: dbc1 053e da95 913d 0c40 ef3d c770 a03e
00000120: 600e d33d c4de 193e 1ac1 9a3e 4e28 d53d
00000130: 9b6e a3be 3134 3a3e dc64 113d 7d7e cb3d
00000140: 67e4 933e 9382 893d 4aa1 a43e 3cb9 8f3d
00000150: 3ecb 1fbe 1111 99be 4f11 7f3e 8c55 513e
00000160: ed04 4dbd 872c 51be e186 183e c991 dd3c
00000170: 1cb3 ab3d ddd9 24bc 0cbe 1abd 3197 2fbd
00000180: 31d8 893d 8b0e 9e3d 1bf8 eb3c 89ff 113e
00000190: 0839 e73d 344c f13d 1581 00bd b0e4 a6bd
000001a0: b14d 4ebe f419 88bd eacb ddbd 4dd1 f3bd
000001b0: 2960 88bd 9775 d3bd f440 d2bc 6a5d 583e
000001c0: 3dd3 bebd 50c3 48be be0d fb3d 2a61 86bd
000001d0: 0876 1e3e a6e0 81be dbd7 2b3e af0a 9f3c
000001e0: a09e ecba 14dc 433d 38c0 2a3d 99bd 04ba
000001f0: 7e19 10be 453a 0c3d fa9d 173e d744 e53d
00000200: 0b3e 6f3d 086a 653d 07a3 d9bd 59eb 84bd
00000210: 03f4 723d 2c8e df3d d917 e6bd 8272 0cbe
00000220: 3098 063d effa 72bc 8784 503d ac9d 063d
00000230: 15b3 f9bd 02bf 5fbd 10fe 1e3e a88c 53be
00000240: f947 91bd ac5c b03d 07f6 69be 7255 66be
00000250: befa 0dbe d766 89bd 3b43 bfbd 57ef 5dbd
00000260: c7cc 6abe 0193 73be 519c 6b3d 4979 1a3e
00000270: 81aa 81bd 429f a53b 9ccf 15be 1bfa 2a3d
00000280: 82c4 33be 96d7 473e e699 f93d 1ec7 f43c
00000290: 913c 81be 5b6f bbbd 2ad1 a6be 34aa 80be
000002a0: 53c1 703c d585 58be 1b5c 943d 3ad2 53be
000002b0: 2572 14be 13f2 7cbe 4b21 6fbe 3475 bfbd
000002c0: 72f5 51bd d28e f93d 9687 09be 972c afbd
000002d0: 8243 43bd 0198 523e 94ee 453d d123 ccbd
000002e0: 5bf0 063d 857e 23be b29d 4c3e 5d78 343d
000002f0: a728 e53a 141c a43e 1c82 9cbd 702e c6bd
00000300: c9f0 553d b14b c03c 61fd 323e 5d20 8f3d
00000310: 5949 aebc 0c85 273e 4018 573e 941c 283e
-0.122235484 -0.22024515 0.14361794 -0.1630926 0.13816659 0.020349558 0.14375287 -0.08721406
-0.20697916 -0.14690028 -0.07678376 -0.32270244 0.46365485 -0.031527046 0.030140234 0.06869477
0.12116041 -0.04703016 0.14378236 -0.06864282 0.51369613 0.04013018 0.14950289 0.15973505
0.054397266 0.15270653 0.21320312 0.053762596 -0.10251441 0.034667034 0.07112125 -0.121622205
0.040683616 0.0025082442 -0.17503564 -0.04809757 0.31952107 -0.109421626 -0.10289176 0.0017547463
0.054106962 0.030354615 0.14971393 0.060046457 0.21767333 -0.033938114 0.059143856 0.066918
0.112270415 0.22390023 -0.07255151 0.019883653 0.09985583 -0.14528151 -0.24978666 0.09031156
-0.038258944 0.06444352 0.01626351 -0.10111499 -0.1251787 0.18427132 -0.11467233 0.025229609
0.03312055 -0.026506957 0.1988217 -0.04448098 0.13062231 0.0710866 0.11682138 0.31336042
0.10305476 0.15026385 0.3022545 0.10408078 -0.31920323 0.18183972 0.035496578 0.09936235
0.28885195 0.06714358 0.32154304 0.070177525 -0.15604874 -0.29895833 0.24908946 0.2044279
-0.050053526 -0.20427142 0.14895202 0.027047055 0.08383772 -0.010061708 -0.0377789 -0.042868797
0.06730688 0.077176176 0.02880483 0.14257635 0.11290175 0.11782113 -0.031373102 -0.081490874
-0.20146824 -0.06645575 -0.10829909 -0.11905155 -0.06658966 -0.10325163 -0.025665738 0.21129385
-0.09317634 -0.19605756 0.122584805 -0.06561501 0.15474713 -0.25366706 0.16781561 0.019414274
-0.0018052645 0.047817305 0.04168722 -0.00050636526 -0.14072224 0.034235258 0.14806357 0.11194771
0.05840878 0.056009322 -0.10626798 -0.064902015 0.05931474 0.10915789 -0.11235017 -0.13715556
0.03285998 -0.014830335 0.050907638 0.03286521 -0.1219236 -0.05462552 0.15526605 -0.20659125
-0.07093806 0.08611426 -0.22847758 -0.22493532 -0.13865182 -0.06709068 -0.09338995 -0.05418333
-0.22929679 -0.23786546 0.05752212 0.15085329 -0.06331349 0.0050543854 -0.14629978 0.041742425
-0.1755543 0.19515833 0.12187557 0.029880103 -0.2524152 -0.09152099 -0.32581455 -0.25129855
0.01469453 -0.21144803 0.0724413 -0.20685664 -0.14496668 -0.24701719 -0.23352544 -0.093485266
-0.051259466 0.12185444 -0.13430628 -0.08553427 -0.047671802 0.20565797 0.04832323 -0.09967769
0.032944065 -0.15966232 0.19982031 0.0440601 0.0017483429 0.32052672 -0.07642004 -0.09676826
0.052231584 0.023473592 0.17479469 0.06988595 -0.02127521 0.16359347 0.21005344 0.16417152

weight_ih_l0_reverse f4 [200, 561]
00000000: f649 f0bd 8677 953d 372a 603e eb87 59be
00000010: 13f5 40be 07a1 50bd 46f2 51be 2d30 ddbd
00000020: 9171 1a3e 2767 48be 997a 79be c7e8 843b
00000030: af48 483e 8ac7 8f3d 7e1b ef3d 93fc 93bd
00000040: 2b81 f1bc 8d3c b23d 076d 343d e24d 243d
00000050: 8282 993d 7ad3 1c3e be59 7dbe eb5e 063d
00000060: f363 d83c b97a 613d c1fb 07be 304f 053e
00000070: 5eb1 28be da2a bb3d 429e 37bc 7e32 f9bd
00000080: 2918 aabe b77b 41be 46dd 12bd 3cec ab3d
00000090: 1a13 16be 1661 863e dd06 03be 345c 573d
000000a0: fcf9 cdbd ea1c 3b3e 37a0 febc 6d45 173e
000000b0: 8f95 953e cb2b a83e 6292 143e a314 223e
000000c0: 187e a53e 0a74 98be ed49 633e 1ea9 a33d
000000d0: d641 33be 0afb 6a3e 3d15 793e b7a4 813d
000000e0: 2e09 68be 4b81 923e 54ab e93d a64a 263e
000000f0: 0875 7d3e 39b9 6a3e 5fbc 083d b65a 003e
00000100: 71bb ca3d 7c59 903e 4436 40be 58bc 903e
00000110: 2bf0 8fbe d192 9a3e 4754 babd 624c 043e
00000120: ab7e 61be 56b6 55bd 15d6 823c 64d2 a3bd
00000130: c179 8e3d 922e 3abe d038 9abd 6ac0 8ebd
00000140: 14e5 83be a3fc 4dbe 824c 98bd 1def 12bd
00000150: 2f39 06be 6888 553d 636e 72bc dc0e 6dbd
00000160: 15f9 14bd 49ba 20be ad26 443e 32ac 253d
00000170: 05e8 b13d caf1 36be 936a cabd a122 81bd
00000180: ab0e 183e 0568 21bd 4835 213e c499 86be
00000190: 1a60 2dbc 54e7 8c3c 85fa 13be 65e6 86be
000001a0: 9b0f 45be 6869 283e dcb5 72be 92f0 a43e
000001b0: 661f 3dbe 7041 963e b8c3 5bbe 4aaf a03d
000001c0: 8b99 19be 12a0 5ebe 3663 14bd ef3d efba
000001d0: b062 74bd 5228 293e da99 0cbe 2b28 d3bb
000001e0: 1acf 6e3e 2792 9a3d 502d 8dbe 2222 b5bd
000001f0: 854f bf3c a938 3bbd 8cb2 79bc 220b c2bd
00000200: 3bcd 90bd e69b eb3d 8c68 e03d 03be 18bc
00000210: 31ea 333d 85d1 31be 3d99 a6bb f02f dabd
00000220: 3832 6f3d 3709 9e3d 0dad 453e 24df 853d
00000230: 33ee d63d cce6 c33c acab 533e a7c4 24bd
00000240: f5ab f83b 1987 083c e02c f8bd 6a82 30be
00000250: 3490 6b3e 99ab 903e 5874 8bbe 31cb e73c
00000260: fb8f c2bd 4587 ff3c c19c 353c ff0a 0dbe
00000270: e3e2 c23b 3a06 253e deb0 ba3d 4b0e 2f3c
00000280: d3ff 503e 505f b7bd 2c40 b7bb 7f86 453e
00000290: 1599 0bbc c508 8b3d ccb2 023e 36a5 333e
000002a0: 7ca9 d83d 6a67 503c c196 f3bb d362 8ebd
000002b0: 1d79 a43c 4f3d bbbd 2536 6f3d 93a6 0f3d
000002c0: 3cef a83d 9484 023b 92c5 023d 48d6 cabc
000002d0: b383 9ebb c926 003e 3601 64be 00ca a1bd
000002e0: 3297 3dbd 5f56 5cbd f405 a33c 968f 46be
000002f0: e332 3dbe 596e 643e 0c30 0dbe dfaf 40be
00000300: 2975 a8bd 56cc b5bc c1f7 d9bd 4f36 f6bd
00000310: 5ce4 71be 195a 223e a7e2 ed3c 4db8 973e
00000320: 9cd8 01be bc98 6abe 1360 513c 4d82 36be
00000330: 91a6 313e 9351 2cbe 9846 9c3c 4174 c4bd
00000340: 4072 40be 095b d7bd 7250 95bd a884 1abe
00000350: bf08 c93d cc25 8ebd dd6e 1f3d 6742 c3bd
00000360: ca9e 51bd e025 a43d b9d6 9abd 1621 d1bd
00000370: abe3 ea3c eb14 83be f95d eb3d 7474 3cbd
00000380: 14ec bdbe a141 993e bff8 fdbc 18e5 1d3c
00000390: b1f9 24be e3ba b93b 9f58 883e fbb9 b53d
000003a0: c1d7 983d 458a 9d3d a996 d3bc b0e6 64bd
000003b0: 1ce1 193d 1286 1b3e c984 fa3c 7bfe 8b3d
000003c0: c7e9 bebc 61c2 903d 9582 a33d b618 0a3e
000003d0: 5a33 803d ba6f d33d 1e0e ec3d 484f 6a3e
000003e0: 2931 e4b8 d543 683e 12e0 a9be 5bf9 6d3e
000003f0: f124 263e 5ca5 4abb 2932 c33c f2b1 633d
-0.11732857 0.07298188 0.21891104 -0.21243255 -0.18843488 -0.050934818 -0.20502576 -0.108002044
0.15082385 -0.195706 -0.24363174 0.0040560695 0.19558977 0.07020481 0.116751656 -0.07225909
-0.029480537 0.087029554 0.04404929 0.040113337 0.074955955 0.15315047 -0.24741265 0.032805365
0.026414847 0.055048678 -0.1327963 0.13018489 -0.1647391 0.09139033 -0.011207165 -0.12167834
-0.33221558 -0.1889485 -0.035855554 0.083946675 -0.14655724 0.26245946 -0.12795587 0.052578166
-0.10057446 0.18272749 -0.031082256 0.14772578 0.29215667 0.3284591 0.14508966 0.15828185
0.32322764 -0.2977603 0.22196169 0.07991241 -0.17505583 0.22947326 0.24324508 0.06330245
-0.22659752 0.28614268 0.11409631 0.16239414 0.24751675 0.2292222 0.03338277 0.12534603
0.09899033 0.2819327 -0.187707 0.28268695 -0.2811292 0.30190137 -0.09098106 0.12919763
-0.22020976 -0.052175842 0.015971223 -0.07999113 0.069568165 -0.18181828 -0.075303674 -0.06970294
-0.2576071 -0.20115905 -0.07436468 -0.035872567 -0.13107751 0.05213204 -0.014796826 -0.0578755
-0.036370356 -0.15696062 0.19155379 0.04044742 0.08686832 -0.17865673 -0.09883609 -0.06305433
0.14849345 -0.03940584 0.15742981 -0.2628919 -0.010581994 0.01720015 -0.14451034 -0.26347652
-0.19244234 0.1644646 -0.23702186 0.3221479 -0.18469009 0.293468 -0.2146138 0.07845934
-0.14999978 -0.2174075 -0.036227427 -0.001825271 -0.05966443 0.16519287 -0.13730565 -0.0064439974
0.2332119 0.075474076 -0.27573633 -0.08844401 0.023353348 -0.045708332 -0.015240323 -0.0947478
-0.070703946 0.11504345 0.10957441 -0.009322646 0.043924514 -0.17365082 -0.0050841854 -0.106536746
0.0583975 0.07716601 0.19304295 0.06536701 0.10494652 0.023913763 0.20670956 -0.040226605
0.0075888583 0.008332991 -0.12117934 -0.17237249 0.23004228 0.2825592 -0.272372 0.028295131
-0.09500118 0.031192431 0.011084736 -0.13773726 0.005947457 0.16115656 0.09115766 0.01068456
0.20410089 -0.08953726 -0.0055923667 0.19289587 -0.008520384 0.06788782 0.12763518 0.17543492
0.105792016 0.012719968 -0.0074337428 -0.06952443 0.020077283 -0.09142553 0.058401246 0.035070967
0.08248755 0.0019915449 0.0319267 -0.02476038 -0.004837477 0.12514795 -0.22266087 -0.078998566
-0.04628677 -0.053793307 0.0199003 -0.19390711 -0.18476443 0.2230772 -0.1378786 -0.1881709
-0.082254715 -0.022192162 -0.106429584 -0.12022077 -0.23622268 0.15854682 0.02903874 0.29632798
-0.12680286 -0.22909826 0.012779254 -0.17823143 0.17348696 -0.16827993 0.01907663 -0.09592486
-0.18793583 -0.105154105 -0.07290734 -0.15089667 0.09816121 -0.06940803 0.038924087 -0.095341496
-0.051176824 0.080150366 -0.07560486 -0.10211389 0.028673014 -0.25601897 0.11492533 -0.046009496
-0.37094176 0.29932883 -0.0310024 0.00963714 -0.16110875 0.0056680306 0.26630113 0.088733636
0.07463027 0.076923884 -0.025828676 -0.055884063 0.037568197 0.15187863 0.030580895 0.06835648
-0.023304833 0.07068325 0.07983891 0.13485989 0.062597945 0.103240445 0.1152613 0.22881806
-0.00010881044 0.22682126 -0.33178765 0.23239653 0.1622503 -0.0030921316 0.02382763 0.055589624

weight_hh_l0_reverse f4 [200, 50]
00000000: e6cb babd 22d0 2b3e 73a8 8dbd 78da 43bc
00000010: b859 c03d df7e 13be 82fe 363c c567 6f3e
00000020: 04ee 00be 8a57 583d e67e 633d 6386 b6bd
00000030: bde3 15be a15b b8bc 2e99 7c3e d16a 393e
00000040: 9563 24be 220b 6a3e 355e ffbd 4203 4dbd
00000050: c188 113e 3767 0cbd bedb 9cbc 54ed 93bc
00000060: 42e3 d1be 23eb 973e bc66 d2bd 15fc f23d
00000070: 0beb 5cbc 559f f83d bb9a 883e 4213 253e
00000080: 8bca 38bd d079 453e 75e1 87be 3b8d 3d3e
00000090: 15a6 703c 7142 9cbd a1b0 143d 91bf 9bbd
000000a0: 6c0b 07be 15db 893c 50fb e13d c044 1cbc
000000b0: 417b 0c3e 3cee e43d 81cd 433d af48 8b3e
000000c0: 357b e6bd 5a83 253e b4c7 8bbd 96ad 653d
000000d0: 0617 2e3b 49ee 833e b724 14ba bf75 b0bd
000000e0: 6fef 2bbe 6e26 0d3e a7fb d73d 7404 823c
000000f0: 3b5d 38bc c5a3 5b3d 0904 6cbd ffcc 13bd
00000100: 3cce 73bd d853 963c 78cf d43d c519 413e
00000110: 9171 903e ce25 a0bd 6c18 9b3d 9ce4 5c3e
00000120: eb95 2c3d 9b98 02be bbb5 d9bc 7713 94bd
00000130: bbd1 563e 6db5 3b3d 3ba1 15be f31f b23d
00000140: c0ef 5f3e 4325 2c3e 19f6 3abe dd84 063e
00000150: 4d7b 01be b7b9 b83e 6fe3 1c3e 4233 833e
00000160: 2aaf eaba 3332 603e 6f07 253e 6b0e 84be
00000170: 7577 1bbe caae 623e 994a 30ba d45b 493e
00000180: 073b 853d 3064 973d 5368 0cbb 423e f1bc
00000190: 3d54 10be 64e9 803d 45bf 623e c088 97be
000001a0: b16d 6cbe 6297 ac3c f350 a73d c2b2 7ebe
000001b0: 5715 e93d b8a4 87bc 186b 8bbe 5085 f9bd
000001c0: 56ff 013f f88e a03e 40a3 92be b390 60bd
000001d0: 55d4 b4bc 3835 673d edda 543d 74c8 0bbe
000001e0: 0f12 0ebe 649f 5e3d 0774 043f 450d 0d3c
000001f0: b465 803c 691c f9be fcf2 56bc 23ff 4ebe
00000200: 4442 4d3c ccb7 52bd c563 f0be 7bb4 0a3d
00000210: 8f37 463d 823f 10be d3d7 363e 7238 2ebf
00000220: d071 38be fc4e cebd 5331 623e 71a2 babe
00000230: 5d3c 0e3e 8ef4 093d 1e36 5a3e 0675 183e
00000240: 78dd 253d 1878 2d3e 47d9 5bbd c48b a1be
00000250: 52c0 1abe ee49 07bf 2a57 b03d c3fc 623d
00000260: a33a 673e d9e7 853c 1047 2abe 2559 493e
00000270: 1ad9 f13e a794 8f3c ff57 30bd b26c fb3d
00000280: 832c 5ebe 4900 02be 25a5 5c3d 68cd 803e
00000290: f1ed cfbe 03e7 97be 9aba 0f3d 8e45 8cbd
000002a0: 5d65 ac3e 31b6 f9bd c996 70be 72c9 72be
000002b0: 16d0 4a3d ae4b 3d3e 911c 1cbe 0549 60be
000002c0: 7fa9 44be 3215 2ebe 9a40 443e df36 d1bd
000002d0: 2bfb 1bbf 065e 84be a622 993d 9163 b0bd
000002e0: 7668 8d3e 1ca4 37be 9289 90be d824 873d
000002f0: 7054 133d 0ed0 cdbe 4a1f ccbd 69ee 753e
00000300: fad6 aabd b591 2abc 3a6d 7f3c 69a4 30bb
00000310: 1c13 7cbe 7bca 5dbf c15d f7bd 3ae7 37bf
00000320: 9273 8dbd c2e1 333d 8c69 f13d 87bf 6ebe
00000330: 5cd8 9c3d 3c7b 863c a611 c8bc 966d c3bd
00000340: 78dc 4cbd 7bec c0bd a2ff d6bc 9d9b 5a3d
00000350: 1827 47bd 3df0 2d3e 96db b5be 34ed 87bd
00000360: c244 92bb b1cf 0dbe 65e7 703e 8449 babd
00000370: 2b95 993d e792 9a3d 851a a4ba 052f 9b3d
00000380: 6113 75bc 9a21 acbd 7b1f 35be b6b3 373d
00000390: 3384 143e 85cf b93d 3367 21be 506f c83d
000003a0: 2d51 e13d 7d41 9f3d d36e 9b3d 6ce2 3ebe
000003b0: 320d 88bd b1e0 01bd 4d1b 9cbd 7f26 743e
000003c0: 5e82 c13d f3d0 a53a 87c6 40bd 2d4f 0dbc
000003d0: 8473 fe3d 5931 4d3d 0787 77bc 7110 3fbe
000003e0: 0323 613d 7f20 84be 39ea 7d3d 3cca 693d
000003f0: e990 fa3d 7f03 cbbd 85e2 2fbe ce16 703d
-0.09120922 0.16778615 -0.06916895 -0.0119539425 0.093921125 -0.14403866 0.011169078 0.23379429
-0.12590796 0.05281786 0.05554094 -0.08912351 -0.14637657 -0.02250463 0.24667808 0.18107153
-0.16053613 0.2285581 -0.124691404 -0.050051935 0.14212324 -0.03427812 -0.01914775 -0.018057503
-0.40993696 0.29671583 -0.10273501 0.11864487 -0.013483773 0.12139765 0.2668055 0.16120628
-0.045115035 0.19284749 -0.26539198 0.18510906 0.014688035 -0.0762986 0.03630126 -0.07604898
-0.13187951 0.0168281 0.11034262 -0.009537876 0.13718893 0.11178252 0.047803406 0.2720389
-0.112539686 0.16163388 -0.068252 0.056073748 0.0026564016 0.25767735 -0.0005651223 -0.08616208
-0.16790555 0.13784191 0.10546046 0.015871264 -0.011252697 0.05362298 -0.057621036 -0.03608417
-0.059522852 0.018350527 0.10391134 0.18857487 0.28211644 -0.07819711 0.075730175 0.21571583
0.04213516 -0.12753527 -0.026575914 -0.07230275 0.20978443 0.045827318 -0.14612286 0.086975
0.21868801 0.16811089 -0.18257941 0.13136621 -0.12644692 0.3607919 0.15321134 0.25625044
-0.0017904986 0.2189415 0.16116117 -0.2579225 -0.15182288 0.22136989 -0.0006724983 0.19663936
0.06505399 0.07392156 -0.0021424487 -0.029448632 -0.14094634 0.06294516 0.22143276 -0.2959652
-0.23088719 0.021068279 0.08169737 -0.24872878 0.113810234 -0.016558036 -0.27230144 -0.121836305
0.50780237 0.31359076 -0.28640175 -0.054825496 -0.022073904 0.056447238 0.051966596 -0.13650686
-0.13874076 0.054351225 0.51739544 0.008609121 0.015673496 -0.48654488 -0.013119455 -0.20214514
0.012528006 -0.051444814 -0.46951118 0.033863526 0.04839283 -0.14086726 0.17855768 -0.6805488
-0.18012166 -0.10073659 0.22089128 -0.36452058 0.13890214 0.03368049 0.21309707 0.14888391
0.040494412 0.16940343 -0.05367401 -0.31551945 -0.15112427 -0.5284718 0.08610375 0.055416834
0.22580962 0.016345905 -0.1662867 0.19662912 0.47235948 0.017526938 -0.04305267 0.12276591
-0.21696667 -0.12695421 0.05386843 0.25156713 -0.40611222 -0.29668435 0.035090066 -0.06849204
0.33671084 -0.121929534 -0.2349502 -0.23709658 0.049514852 0.18485901 -0.15245272 -0.21902855
-0.19205283 -0.17000273 0.19165269 -0.10215544 -0.60930127 -0.25852984 0.07477312 -0.08612741
0.2761876 -0.17933697 -0.28229958 0.06598824 0.035969198 -0.40197796 -0.099669054 0.24016728
-0.08341785 -0.010410716 0.0155900065 -0.0026953465 -0.24616665 -0.86637086 -0.12078429 -0.718372
-0.06906809 0.04391647 0.117877096 -0.2331525 0.07658455 0.016416185 -0.024422478 -0.09542386
-0.050014943 -0.09420105 -0.026244942 0.05337106 -0.048621267 0.16986175 -0.35519093 -0.0663704
-0.004463763 -0.13848759 0.2352577 -0.09096053 0.07499155 0.07547551 -0.001252011 0.07577328
-0.014958234 -0.084048465 -0.1768779 0.04484912 0.14503555 0.09072784 -0.15762024 0.09786856
0.11001811 0.07776163 0.075894974 -0.1864106 -0.06643142 -0.031708423 -0.07622395 0.2384281
0.09448694 0.0012650773 -0.04706433 -0.008624834 0.124243766 0.05009589 -0.015107877 -0.18658616
0.05496503 -0.25806043 0.06199095 0.05707763 0.12234671 -0.09912776 -0.17176254 0.0586155

bias_ih_l0_reverse f4 [200]
00000000: 7088 aabe b2af 7dbe 7106 183e e0b2 c43e
00000010: 8777 99bc 64ff 59bd 7f6d aa3d 415e 97bd
00000020: 32d7 01be ec32 3b3e b49f 8c3e b120 043b
00000030: eb2b 903c c877 8abd 2a57 f43e c247 763e
00000040: eb49 33be c280 7f3d 7ab1 933e 62e1 3bbd
00000050: bf94 a23c f025 893d ac7e 8c3e 169d 9d3d
00000060: 9252 93be 0c0d 91be 87c4 063e 6183 0bbd
00000070: 7dbd 73be 1938 e3bd a141 683e f6bf dcbd
00000080: d246 b23d d117 3cbd 74f6 c3bb 0ede 003d
00000090: 77de 833d 4329 653e 12a4 8dbe 9bd8 e53d
000000a0: 10ab c0bd 5aa9 b03d 8ccb e4bc ac49 54bd
000000b0: 1549 06bd 1a84 86be fcd6 103e 8392 843e
000000c0: c253 22bd 4940 8bbc 0a8d 2cbe b5ea cebc
000000d0: 46b8 7fbd 3e01 623e d5b8 29bd ea81 0c3e
000000e0: c2d8 e23d a82d 9e3d 2b32 b53c b510 133e
000000f0: a2a9 b13d 0815 143d 1310 6e3d f549 d83d
00000100: 5c11 5dbe ffd3 8b3d 3100 46bd ce06 60bd
00000110: 7f62 2a3e 5cca df3d 39d2 5fbd b1b3 643d
00000120: bb33 753e 5ca3 f43d d645 853e af6a e2bd
00000130: ab05 cd3d 85ef eabc 109e 9fbe a36d 4e3e
00000140: 8a45 4f3e 3217 bfbd b325 b5bd 4e38 83be
00000150: d561 05be 6625 e63d 19f5 b53c 3fb6 95bb
00000160: 2063 b5bc 1a1c 24bc f140 463c 53c0 4c3e
00000170: 74b2 e13d e9a7 28be 5699 dc39 9be3 28be
00000180: 7416 613e d040 0e3e c2d4 70bc 43ce 48be
00000190: 1710 4e3e e04f 36be a6de 4f3d 62ab 2c3c
000001a0: 6d54 50bd e4fc 6e3e 93f7 1abd 39b9 e73a
000001b0: e34d 80bd b188 3e3e 97e7 24be 4014 bc3d
000001c0: 0f39 cb3d b6bb 553e a8a3 55be d62b d5bd
000001d0: 55ec d83c be21 42be dc91 6e3c 4495 8dbc
000001e0: 70d4 46be 3db9 963d bf2c d13c 1e3a 113e
000001f0: 8a68 2cbd e4b6 43bc 80f3 28be a3d3 353e
00000200: b3c4 2d3e 8338 063e 4ed3 fd3c ec3b f13d
00000210: be84 d5bd e15b 333c 3c70 a9bd 6c21 79be
00000220: 12b3 8abd 0791 a33d 8ac2 943d e37e 74be
00000230: d94d 16bd 5e6a df3d b061 33be f295 d4bc
00000240: a23d 1b3e 7e24 b7bd ac98 afbd 6b1f a8bc
00000250: 15dc cb3c 79fc 66be bd5c 2b3e 68ed 493d
00000260: adde 463e e691 013d bc48 82be 1cf8 61bd
00000270: 1960 8cbd 4099 f2bd 86cc ecbd 23fc 86be
00000280: 13e1 653d a3e3 043d caed 9d3e c870 5e3e
00000290: 18df 713e 9bf8 243e 1a69 c7bc a534 2ebe
000002a0: d981 4c3e 1808 23be 2e2e 8cbd b02d 12be
000002b0: 11c4 2f3e 175f c7bd 53a2 953c 06ea 3b3e
000002c0: c9c8 69be 39a1 873b 7966 5e3e a468 0a3e
000002d0: 2a6e 583e a158 7d3d 94ab b6bd da85 64bd
000002e0: 7e97 0fbe d37c 7a3e db71 6c3d 9229 a9be
000002f0: 52a5 fd3d 6bb9 5f3e 3775 243d c889 62be
00000300: baa5 4e3c 1fa3 debd 7456 393d 78b3 f83c
00000310: 5b58 ea3e 8d6b 643e 2d2a 7dbd 49bb 0f3e
-0.3330722 -0.24774054 0.14846207 0.3841772 -0.018733753 -0.053222075 0.08321666 -0.073910244
-0.12679747 0.18281144 0.27465594 0.0020161087 0.017599067 -0.06761128 0.4772275 0.24050811
-0.17508666 0.062378652 0.2884634 -0.04586924 0.019846318 0.06696689 0.27440393 0.076959774
-0.28773934 -0.28330266 0.13160907 -0.03406084 -0.23802753 -0.11094684 0.22681285 -0.10778801
0.08704914 -0.04592115 -0.0059803072 0.031461768 0.06438916 0.22379021 -0.27664238 0.11222955
-0.094076276 0.08626051 -0.02792909 -0.05182807 -0.03278454 -0.2627266 0.1414451 0.2589303
-0.03963066 -0.016998427 -0.16850677 -0.025258401 -0.062431596 0.22070786 -0.041436035 0.13721433
0.110764995 0.07723552 0.022118649 0.14361842 0.08674933 0.03615287 0.0581208 0.10560981
-0.21588653 0.068275444 -0.048340026 -0.05469399 0.16639136 0.10927269 -0.054643843 0.05583543
0.23945515 0.11945221 0.26029843 -0.110555045 0.10010847 -0.028678665 -0.3117528 0.2015901
0.20241371 -0.09330596 -0.08845081 -0.25628895 -0.13025601 0.11237602 0.022211598 -0.0045688446
-0.022141993 -0.010016466 0.012100444 0.19995241 0.11020365 -0.16470303 0.00042075914 -0.16493075
0.21981221 0.13891912 -0.014699163 -0.19609933 0.20123325 -0.17803907 0.050749443 0.010538908
-0.050861765 0.23338658 -0.03783376 0.0017679102 -0.06264856 0.18606831 -0.1610397 0.0918355
0.099229924 0.20872387 -0.20863211 -0.10408752 0.02647988 -0.18958184 0.014561143 -0.01728309
-0.19416976 0.0735955 0.025534032 0.14182326 -0.042091884 -0.01194546 -0.16499138 0.17756514
0.16969566 0.13107495 0.030984547 0.11779007 -0.10425709 0.010947199 -0.0827336 -0.24329156
-0.06772436 0.07986646 0.07263668 -0.23876528 -0.036695335 0.1090896 -0.17517734 -0.025950406
0.1516023 -0.08942507 -0.08574042 -0.020522794 0.024885217 -0.22557248 0.16734596 0.049298674
0.19420882 0.03163328 -0.25446117 -0.055168256 -0.06854267 -0.11845636 -0.11562447 -0.2636424
0.05612285 0.032443654 0.3084548 0.2172271 0.2362026 0.1611046 -0.024342109 -0.1701227
0.19971408 -0.15921056 -0.068447456 -0.14275241 0.17164637 -0.09734934 0.018265879 0.18350992
-0.228305 0.0041390923 0.21718778 0.1351648 0.21135774 0.0618521 -0.08919445 -0.055791713
-0.14022633 0.24461679 0.05772577 -0.33039528 0.12385048 0.21848075 0.040150847 -0.22122872
0.0126127545 -0.10870957 0.045248464 0.030359015 0.45770535 0.22306652 -0.0618078 0.14036287

bias_hh_l0_reverse f4 [200]
00000000: 3db6 aabe f1b6 71be 0402 cd3d 7204 dc3e
00000010: 5252 dd3d fd19 27bd 97cd 533b 8d5b 0c3e
00000020: 0595 f6bc d7c1 133e e018 323d 47f4 02bc
00000030: 02ba 713d bcb4 8ebd dfa8 df3e bb2b d13e
00000040: 0d1e 61bd 72f8 a63c df85 a93d 3515 a9bd
00000050: 9bd5 d93c 87ed b83d 5a9c 6f3e 7882 5ebd
00000060: 39f0 4bbe 63bb 76be 5954 093e 7566 05be
00000070: 77a2 86be e310 87be c187 9a3e 1e48 18be
00000080: e8a1 d43d f267 163e 079b 04be f97b 3fbe
00000090: e08f 693e 116d d13b 0c1c 5dbe 2f46 8f3d
000000a0: 2b3b b1be bf45 b93d c866 353e 5bc8 a8bc
000000b0: 3597 aebd 81cf 5ebe 07de 533e 6ce4 9d3e
000000c0: 9f2b 41be b9fa 773d 6212 64be d3e7 173e
000000d0: 4455 96bd c64a ad3d 17fb aebc 03b4 0e3e
000000e0: 7f7c 573e 22bb 4bbd 193d 763d 0f52 1e3e
000000f0: 048e 0a3e 0c96 f53c c71e 0cbc 09f6 78bd
00000100: a704 13be a1d2 3f3b c598 b1bd 1e85 bb3c
00000110: 7e17 ac3e 5c07 a1bd 33ff 8fbc a0a3 d1bd
00000120: a57e 873e 7ef2 b43d eea6 193e 8c74 193d
00000130: fa5f 253e 40ff 51be 0baa 82bd 1584 423e
00000140: 579c 4ebd 889c ec3d 8360 723c 9726 82bd
00000150: 02cf 0dbd 3bec 063e b395 ca3d ffc0 a73c
00000160: e931 063e 269e 613b 472c a1bc a096 103e
00000170: 1971 293e ef78 4ebd e4b9 b23d aa4f fcbd
00000180: e5b6 963e 3a40 f83c 8f8a fdbd 171a d23a
00000190: fc1e 283e e652 80bd 44e9 423e f4d3 18be
000001a0: 9f23 13be 7ed8 c83d f4c4 413e 48f7 19be
000001b0: 35ce 4a3d 9322 4d3e 02f2 7bbe c15a 32be
000001c0: f1dc 453e 610a bb3d 9719 21be c06b a9bc
000001d0: 0c75 013e 1ec0 6abe cfc9 f33d 7116 9d3d
000001e0: 47bd f93c 5f96 d5bc 1eae 2a3e a7e1 ad3d
000001f0: 4abc 75be 1fba 2c3c 0704 883d e7dc 4a3d
00000200: cdeb 4cbd 63b0 a33d 8151 43bd 99eb 37bd
00000210: 00fd c83d 6991 debd 77a6 0a3e 3c22 273c
00000220: 0b8e 35be 0f69 f73c 5906 c43c b6b3 13be
00000230: 3c4e 54bd 2961 68bd 00d7 2a3c c3e7 06be
00000240: 8794 053e b2e5 5abe 4d7d 35bd 566b 27be
00000250: 12fa ddbd 475b e83c 300e 523c 86c0 003d
00000260: 1f79 9f3e 7bd6 d5bd 139f 5dbd 2dd3 32be
00000270: 9ef8 4dbe 5494 00be 9251 bd3d 7417 7cbe
00000280: 7145 9e3d fb89 03be ccfe 223e 3cbb 4b3e
00000290: abd6 8d3d be66 e13c e016 32be 0a98 68be
000002a0: 6406 7c3e 0ea7 59be e65f d6ba d591 18be
000002b0: c1ad 8a3d 02fe 6cbe e8cc 233e 5a22 453e
000002c0: 3b69 92bd 51fe 30be c468 193e a978 763d
000002d0: f1cc 533e ae5e d9bd 7641 c1bd 0dca efbc
000002e0: f36d a2bd 3b5a d03d d2fd 1f3d 621f 7cbe
000002f0: 529d a43c ea41 633e ea5b 98bd 77c1 e5bc
00000300: 339a 323c 7b7c 8cbe 300b 3e3d 9985 123d
00000310: 3688 c23e ff3d 823e 60bf 69bd 4f9e b73d
-0.33342162 -0.23604943 0.1001015 0.42972142 0.10806717 -0.04079627 0.0032318586 0.13706799
-0.030100355 0.14429413 0.043480754 -0.007992811 0.05901528 -0.06968066 0.43683526 0.40853676
-0.0549603 0.02038214 0.08277487 -0.08255998 0.026591113 0.0902968 0.23399487 -0.054323643
-0.19915856 -0.2409492 0.13411082 -0.13027366 -0.26295826 -0.2638007 0.30181697 -0.1487126
0.10382444 0.1468809 -0.12949763 -0.18699636 0.2280879 0.0063911756 -0.2159273 0.06995808
-0.34615454 0.09046506 0.17714989 -0.02060335 -0.08524934 -0.21758844 0.20690165 0.30838335
-0.18864296 0.060541842 -0.22272637 0.14834528 -0.07340482 0.084615275 -0.021359963 0.13935857
0.21043585 -0.04973901 0.06011686 0.1546099 0.13530737 0.029978774 -0.00855226 -0.060781512
-0.14357243 0.0029269832 -0.086717166 0.022890624 0.33611673 -0.07862732 -0.017577743 -0.10236287
0.2646381 0.08835314 0.15005085 0.037464663 0.16149893 -0.20507526 -0.06380089 0.18995698
-0.050442066 0.115532935 0.014793518 -0.06355017 -0.034621246 0.13176052 0.09891834 0.02047777
0.13104977 0.003442654 -0.019674433 0.14119959 0.1654705 -0.0504083 0.08726862 -0.12319882
0.29436412 0.030304063 -0.123799436 0.0016029504 0.1641807 -0.062658116 0.19034296 -0.14924604
-0.14369057 0.098069176 0.18922788 -0.15035737 0.04951306 0.2003272 -0.24604037 -0.17417432
0.19322564 0.09132839 -0.15732418 -0.020681262 0.12642306 -0.2292485 0.11903726 0.07670296
0.030485762 -0.02607268 0.16667983 0.084903054 -0.23997608 0.010542422 0.06641393 0.049527075
-0.050029565 0.079926275 -0.04768515 -0.044902418 0.09813881 -0.108675785 0.13540064 0.010201033
-0.17729966 0.030201463 0.023928808 -0.14424023 -0.051832423 -0.056733284 0.010427237 -0.13174348
0.1304494 -0.21376684 -0.04430895 -0.16349539 -0.10838713 0.028363837 0.012820765 0.031433605
0.31147096 -0.104412995 -0.054106783 -0.1746337 -0.20114371 -0.12556583 0.09244074 -0.24618322
0.07728089 -0.12845604 0.1591751 0.19895643 0.0692571 0.027514812 -0.17391539 -0.22714248
0.24611813 -0.21255133 -0.0016355484 -0.1489938 0.06771422 -0.23143771 0.15996134 0.19251385
-0.07148977 -0.17284514 0.14981371 0.060173664 0.20683648 -0.10613762 -0.09436314 -0.02927115
-0.079311274 0.1017346 0.03906042 -0.24621347 0.020094547 0.22193113 -0.07439406 -0.028046353
0.010901022 -0.2743872 0.046397388 0.03577194 0.37994546 0.25437924 -0.057067275 0.08965742
