models/provided_BiLSTM.pt (torch, 989352 bytes, 10 tensors)

weight_ih_l0 f4 [200, 561]
0	0x3bbd42be	0.0057757786
1	0xbd0906e4	-0.033453837
2	0xbdfcfa71	-0.123524554
3	0xbd8acd4f	-0.06777441
4	0xbd6e568e	-0.058188014
5	0x3bf56b9f	0.007489636
6	0xbd9e4014	-0.07727066
7	0x3dd25f76	0.10272114
8	0x3d7dcba3	0.06196178
9	0xbda36898	-0.07978934
10	0xbe06492b	-0.13113849
11	0xbe2af424	-0.16694695
12	0xbd451525	-0.048115868
13	0x3d15048f	0.0363813
14	0x3e02918f	0.12750839
15	0xbe0238db	-0.12717001
16	0xbe2c9c25	-0.1685644
17	0xbda1bcf1	-0.07897366
18	0xbd9d94fc	-0.07694432
19	0xbc21e3b0	-0.009880945
20	0xbdc1eeb6	-0.094693586
21	0xbe10788b	-0.14108483
22	0xbd880002	-0.066406265
23	0x3c08421d	0.008316544
24	0x3dcbedfe	0.09957503
25	0xbd870f84	-0.06594756
26	0xbd32d59c	-0.043660745
27	0xbd27f92a	-0.041009106
28	0x3d31690f	0.043313082
29	0x3e052165	0.1300102
30	0x3d248f17	0.040175524
31	0xbb7e25fd	-0.0038779967
32	0xbdc21040	-0.09475756
33	0x3bafa3b0	0.0053600892
34	0x3d8a2312	0.067449704
35	0x3d9cc8e9	0.07655508
36	0xbcaee8ec	-0.0213513
37	0x3da294f5	0.079385675
38	0xbc890384	-0.01672531
39	0x3e093694	0.13399726
40	0xbdca96b2	-0.09892024
41	0xbdd66d2e	-0.10470043
42	0xbda648fc	-0.081193894
43	0xbe0510f7	-0.12994753
44	0xbe08fa39	-0.13376702
45	0xbb4456f7	-0.0029959062
46	0xbd20edb4	-0.03928919
47	0xbdd2c482	-0.10291387
48	0xbc5df390	-0.013546839
49	0x3d9598e6	0.07304554
50	0xbe0e8df9	-0.13921346
51	0x3e211e0b	0.15734117
52	0x3d9b9907	0.07597547
53	0x3dd3a819	0.103347965
54	0x3e2a398d	0.16623516
55	0xbd8bc9fb	-0.06825634
56	0x3d329ae7	0.043604758
57	0xbdbe7593	-0.09299769
58	0x3d26669c	0.0406252
59	0xbdf4a9f3	-0.11946478
60	0xbe23b00f	-0.1598513
61	0xbe1493aa	-0.14509454
62	0x3da4779a	0.08030625
63	0x3d819fa0	0.06329274
64	0x3db78b1b	0.08962079
65	0x3dc494b4	0.09598675
66	0xbd65e892	-0.05613
67	0x3dd40249	0.10351998
68	0x3dd8bca9	0.10582859
69	0xbd150d7d	-0.036389817
70	0xbbc384cf	-0.0059667598
71	0x3ddc63f1	0.1076125
72	0x3babacbb	0.005239097
73	0xbdda12a5	-0.106480874
74	0xbd87ed7e	-0.06637095
75	0xbda9b150	-0.08285773
76	0x3d11e07e	0.035614483
77	0xbd54df90	-0.05197102
78	0x3cac8956	0.02106158
79	0xbde2efd3	-0.11080899
80	0x3ddd733a	0.10812993
81	0xbe1d5284	-0.15363508
82	0xbe397a56	-0.18113074
83	0xbdfb5921	-0.12272859
84	0x3d656a2c	0.056009457
85	0xbca9e14e	-0.020737316
86	0xbde229b0	-0.110431075
87	0xbd13e500	-0.036107063
88	0x3dc3dada	0.09563227
89	0xbbbb359f	-0.0057131792
90	0x3d5fec17	0.054668512
91	0x3d56d475	0.05244871
92	0x3d801ac4	0.06255105
93	0xbd406758	-0.046973556
94	0x3d5687c2	0.052375562
95	0xbda5d5eb	-0.08097442
96	0x3c9152bd	0.017739648
97	0xbe2e5a3b	-0.17026608
98	0xbe246051	-0.16052367
99	0xbe2dc3bc	-0.16969198
100	0xbd4ea700	-0.050452232
101	0x3db08089	0.08618266
102	0xbd7f6907	-0.06235602
103	0xbcd758fa	-0.026287545
104	0xbc0862a8	-0.008324303
105	0x3dd93e04	0.10607532
106	0xbdda9833	-0.10673561
107	0x3e0bedf6	0.13664994
108	0x3cf1991c	0.029491954
109	0xbddd3bd2	-0.108024254
110	0xbe2f230b	-0.17103212
111	0x3e076b7c	0.13224596
112	0xbc076852	-0.008264618
113	0x3dadc47a	0.084847406
114	0x3e0e16fa	0.13875952
115	0xbdc2e1dc	-0.095157355
116	0xbddb9160	-0.107210875
117	0xbd80f853	-0.06297364
118	0xbc9f5901	-0.01945162
119	0x3d7efa59	0.06225047
120	0x3d4a1434	0.049335673
121	0x3ce0554e	0.027384426
122	0x3bbeeb70	0.005826406
123	0xbe2cb163	-0.16864543
124	0x3c2eedbb	0.010676797
125	0xbd8fe8bc	-0.070268124
126	0xbc72f182	-0.014828088
127	0x3dde0d33	0.10842361
128	0x3d9f8054	0.077881485
129	0xbe0525f3	-0.13002758
130	0x3cd78ff3	0.026313758
131	0x3d8881fd	0.06665418
132	0xbbf85202	-0.0075781355
133	0xbcc57e1b	-0.024107983
134	0x3ddea228	0.108707726
135	0x3d1e4832	0.03864307
136	0x3d874a3f	0.06605958
137	0xbe132bc9	-0.14372171
138	0xbdebc5c5	-0.11512331
139	0xbdea795c	-0.11448929
140	0x3d4fe612	0.05075652
141	0x3c8166db	0.015796116
142	0x3d20b846	0.039238237
143	0xbe2e42bd	-0.17017646
144	0xbd83fb00	-0.06444359
145	0x3c857ce2	0.0162949
146	0x3cf99949	0.0304686
147	0xbd167836	-0.036735736
148	0xbbf9068b	-0.007599657
149	0x3d6af0ad	0.057358433
150	0xbe3574e8	-0.17720377
151	0x3e19067f	0.14943884
152	0xbdb96994	-0.090533406
153	0x3daab343	0.08334973
154	0xbe128d4d	-0.14311714
155	0xbda6b15c	-0.08139297
156	0x3e184f14	0.14873916
157	0x3dd57fee	0.10424791
158	0xbdff6725	-0.12470845
159	0xbc98bb36	-0.018643957
160	0xbc75472d	-0.014970583
161	0xbd00bff3	-0.031433057
162	0xbdebaefc	-0.11507985
163	0xbe1add1b	-0.15123408
164	0xbd289e1a	-0.041166402
165	0x3c69eda7	0.014277852
166	0xbe2fcf7f	-0.17168997
167	0xbddbb27d	-0.10727403
168	0xbe244242	-0.160409
169	0xbd5be4ed	-0.053685118
170	0xbdcd66cd	-0.10029373
171	0x3c96e00b	0.018417379
172	0x3cf55ab5	0.029950479
173	0x3cb328ff	0.021870134
174	0xbd4b2bdb	-0.04960237
175	0xbdec8d63	-0.11550405
176	0xbe12dc24	-0.1434179
177	0x3daf26b4	0.08552304
178	0xbd4feca6	-0.050762795
179	0xbe098961	-0.13431312
180	0xbd9f75ed	-0.077861644
181	0x3dd304f6	0.103036806
182	0xbc3115c0	-0.010808408
183	0xbd13a49d	-0.03604566
184	0xbdbace9a	-0.09121437
185	0xbd3686e1	-0.044562224
186	0x3dac2203	0.08404925
187	0x3dc77830	0.09739721
188	0xbd061c18	-0.032741636
189	0x3d0f7d97	0.03503188
190	0xbdd3fcc5	-0.10350946
191	0xbd0280dd	-0.031861175
192	0x3d9d869d	0.07691691
193	0x3d9af2f1	0.07565869
194	0xbb5e54d6	-0.0033925078
195	0xbd59e8ef	-0.05320066
196	0x3cf93633	0.030421352
197	0xbd7b1c1d	-0.061306108
198	0x3d8b407a	0.06799407
199	0x3dc223c1	0.09479476
200	0xbe13a3c4	-0.1441794
201	0xbc35578f	-0.011068239
202	0x3d99148d	0.07474623
203	0xbe2f9aea	-0.17148939
204	0xbc8ce72d	-0.017200077
205	0x3da7d725	0.081953324
206	0x3dc408ef	0.095720164
207	0xbdec7a88	-0.115468085
208	0xbcfe538f	-0.031045703
209	0xbd81b1a2	-0.06332709
210	0xbe0c2f37	-0.13689886
211	0xbdc9cd56	-0.09853618
212	0xbdbc5fc9	-0.09197957
213	0xbd3ce0f0	-0.046112955
214	0x3d7cbc2c	0.061702892
215	0xbd67dd2d	-0.056607414
216	0x3cb738da	0.022365976
217	0x3d4bb52b	0.049733322
218	0xbcd223bf	-0.02565181
219	0x3d1eae99	0.038740728
220	0xbe282d8b	-0.16423623
221	0xbe2764e0	-0.16347075
222	0x3da1d460	0.079018354
223	0xbe11e5f1	-0.14247872
224	0x3dc5473c	0.096327275
225	0xbbdcb30c	-0.0067352112
226	0x3c83293f	0.016010879
227	0xbe26d671	-0.1629274
228	0x3d91ac32	0.07112922
229	0x3d458b9a	0.048228838
230	0x3db5f989	0.08885486
231	0x3dcfa1cd	0.10138283
232	0xbdaee893	-0.08540454
233	0x3dd9e975	0.106402315
234	0x3da0f6b8	0.07859558
235	0xbd587832	-0.052849002
236	0x3d6b2341	0.057406668
237	0x3d0b756c	0.03404753
238	0xbde17126	-0.110079095
239	0xbd1003b1	-0.03515977
240	0x3d92e61b	0.071727954
241	0x3d849a7b	0.06474777
242	0xbdaa42e6	-0.08313541
243	0xbda493ac	-0.08035979
244	0x3d0b65ed	0.03403275
245	0xbd38673d	-0.04502033
246	0xbd9f0b6c	-0.077658504
247	0x3c8d607d	0.017257923
248	0xbd4c5bd1	-0.04989225
249	0x3deaf5af	0.11472642
250	0xbdc32406	-0.09528355
251	0x3c9c2802	0.019062046
252	0xbda3b727	-0.07993918
253	0xbdca47fd	-0.09877012
254	0x3cc7e4d4	0.024401106
255	0x3d7f6e76	0.062361203

weight_hh_l0 f4 [200, 50]
0	0xbe059b59	-0.13047542
1	0xbd1331d8	-0.035936207
2	0xbe073fda	-0.13207951
3	0xbc872b74	-0.016500212
4	0xbd78e5eb	-0.06076614
5	0x3cead5fe	0.028666493
6	0xbc5c9b1b	-0.013464714
7	0xbdd238c5	-0.10264734
8	0xbdf61483	-0.12015631
9	0x3dfadcca	0.122491434
10	0xbc205d0d	-0.00978781
11	0x3ad84958	0.001650135
12	0xbdd6ac43	-0.10482075
13	0x3e1ef7f4	0.15524274
14	0xbe0a5694	-0.1350959
15	0xbe2ff92c	-0.17184895
16	0xbd8e3e72	-0.06945504
17	0x3ddd8960	0.10817218
18	0xbd95ce0f	-0.07314693
19	0xbd752d97	-0.05985793
20	0x3ceb978a	0.028758783
21	0xbda9a0c1	-0.082826145
22	0xbe1c77f2	-0.1528013
23	0x3e062117	0.1309856
24	0x3d82cce9	0.0638674
25	0xbddda550	-0.108225465
26	0x3d43bcda	0.047787525
27	0x3c0586bc	0.008149799
28	0x3e1989d4	0.14993984
29	0x3db30f7f	0.0874319
30	0xbb8f5ae3	-0.004374848
31	0xbdda1ca9	-0.10649998
32	0xbd1092aa	-0.03529612
33	0x3da86b8f	0.0822364
34	0xbd8c5839	-0.06852765
35	0xbe1de2d0	-0.15418553
36	0xbe1722e9	-0.14759411
37	0x3d6ec4a1	0.05829299
38	0x3de97ca1	0.11400724
39	0x3e0a0c37	0.13481222
40	0x3d7a9fb1	0.06118745
41	0x3d0c822a	0.03430382
42	0x3d808fb6	0.06277411
43	0xbd7ff2f2	-0.06248755
44	0xbbef0898	-0.0072947256
45	0x3dd1a157	0.10235851
46	0xbb13b681	-0.00225392
47	0xbe12506d	-0.14288493
48	0xbd535c8e	-0.05160194
49	0xbd980945	-0.07423643
50	0x3d9f0577	0.07764714
51	0x3de95987	0.11394029
52	0xbf103924	-0.5633719
53	0xbd6dbdff	-0.058042523
54	0xbf07a879	-0.52991444
55	0xbda0f1fb	-0.07858654
56	0x3e03ac30	0.12858653
57	0x3eac8588	0.33695626
58	0x3f0e0db4	0.5548966
59	0xbdd45ebd	-0.103696324
60	0x3d10faef	0.03539556
61	0x3e26dbdc	0.16294807
62	0x3f411cd9	0.75434643
63	0x3f01f6a8	0.5076699
64	0xbf077e94	-0.5292752
65	0x3f0f3a92	0.55948746
66	0x3ed3a67a	0.4133795
67	0xbd060a0e	-0.032724433
68	0x3e7e458a	0.24831215
69	0x3ddc86af	0.10767876
70	0xbf05b244	-0.52225137
71	0x3dacacee	0.08431421
72	0x3ea182c6	0.31545085
73	0xbd4dab7e	-0.050212376
74	0xbe84a2ce	-0.2590546
75	0xbd83a2d3	-0.06427541
76	0xbef4e6f6	-0.4783246
77	0x3bad3d7d	0.005286871
78	0xbb2bfb60	-0.002624236
79	0xbd0cbc13	-0.03435905
80	0x3d9d64fd	0.076852776
81	0x3f0eafbe	0.5573691
82	0x3e133428	0.14375365
83	0xbf0d5f65	-0.55223686
84	0xbeaf74ae	-0.34268707
85	0x3e88267b	0.26591858
86	0xbeb9afdc	-0.36266983
87	0xbd049515	-0.03236874
88	0x3ded2966	0.11580162
89	0xbcfed452	-0.031107102
90	0x3ea1e333	0.31618652
91	0x3da89049	0.08230645
92	0x3ddad0d6	0.106843635
93	0x3ea02099	0.3127487
94	0x3e087587	0.13326083
95	0xbda9475d	-0.082655646
96	0x3eb72c47	0.35775968
97	0xbed4d010	-0.4156499
98	0x3f1f4e60	0.62228966
99	0xbf172aff	-0.5904998
100	0x3dd3a920	0.103349924
101	0x3cb0c08f	0.021576194
102	0xbdd8ddb5	-0.10589162
103	0xbf0c39b1	-0.5477553
104	0xbe5bd576	-0.21468148
105	0xbe5acbb4	-0.21366769
106	0xbd0e078e	-0.034675173
107	0xbd3d74f6	-0.04625412
108	0x3d6f596a	0.05843488
109	0xbdc0e705	-0.094190635
110	0x3cfdaa8a	0.030965108
111	0x3d829c8c	0.06377515
112	0xb72f1632	-1.0435981e-05
113	0x3ea71cdd	0.32639208
114	0xbe2ae148	-0.166875
115	0x3e8a7d3a	0.27048665
116	0x3e9fc73f	0.312067
117	0xbe9541a9	-0.29151657
118	0x3c0332b2	0.008007692
119	0x3e80398c	0.25043905
120	0xbe413385	-0.1886731
121	0xbd456b62	-0.04819811
122	0x3e44d6f2	0.1922262
123	0xbc87ef05	-0.016593466
124	0x3da5ac53	0.08089509
125	0xbdccc2b7	-0.099980764
126	0xbd7f1b47	-0.062281873
127	0x3e33ddac	0.1756503
128	0xbd26906b	-0.04066507
129	0x3e6cb14e	0.23114511
130	0x3ddb1b93	0.10698619
131	0xbd6b685f	-0.057472583
132	0x3df246b3	0.11829891
133	0xbdcd5b22	-0.10027148
134	0xbe252080	-0.16125679
135	0x3d64db39	0.05587313
136	0xbea2fa4f	-0.31831595
137	0xbe0f7ced	-0.14012499
138	0x3e13347f	0.14375494
139	0x3cab8a2b	0.020939907
140	0x3e4038a1	0.18771602
141	0x3e0f207c	0.13977236
142	0x3d9e84ae	0.077401504
143	0x3d965635	0.073406614
144	0xbdf8102e	-0.12112461
145	0xbdd238a1	-0.10264707
146	0xbb81a3bf	-0.0039562876
147	0xbddb38ef	-0.107042186
148	0x3e64d885	0.2234822
149	0xbd943b99	-0.0723793
150	0x3e1fc4fa	0.15602484
151	0x3df25398	0.118323505
152	0xbedd107e	-0.43176645
153	0x3e26966a	0.16268316
154	0xbebaba2c	-0.36470163
155	0xbc8fcf5d	-0.017554933
156	0xbdc36b1b	-0.09541913
157	0xbe1df1f9	-0.15424336
158	0x3ee6d3bf	0.45083424
159	0xbd8d95f0	-0.06913364
160	0x3bef7f9d	0.007308914
161	0xbcff2552	-0.031145725
162	0x3ef29074	0.47375834
163	0x3e70089a	0.23440781
164	0xbe73e340	-0.23817158
165	0x3ecc481a	0.3989876
166	0x3ea7e620	0.3279276
167	0xbbe45889	-0.006968562
168	0xbd8899eb	-0.066699825
169	0xbc9e767a	-0.019343603
170	0xbed53154	-0.41639197
171	0xbc35dc99	-0.011099958
172	0x3e88dbee	0.26730293
173	0xbd156555	-0.03647359
174	0xbf1d1106	-0.613541
175	0x3c8956be	0.016764995
176	0xbd89bf7c	-0.06725976
177	0xbd4fee19	-0.050764177
178	0xbe232ef0	-0.15935874
179	0xbf034702	-0.51280224
180	0xbd3486b4	-0.044073775
181	0x3d99e127	0.075136475
182	0x3c527822	0.012846025
183	0x3d4b51d8	0.0496386
184	0xbef07ff7	-0.4697263
185	0x3d3daa0b	0.046304744
186	0xbe2dacc8	-0.16960442
187	0xbe006ab7	-0.12540708
188	0xbd8a48ce	-0.06752168
189	0x3dd11503	0.10209086
190	0x3c6f74b6	0.014615228
191	0xbc37e9c3	-0.011225167
192	0xbc083328	-0.008312978
193	0xbdd8c32f	-0.10584103
194	0x3cd063c1	0.025438191
195	0x3e1290fa	0.14313117
196	0x3ed4ea4b	0.41585
197	0xbdb7482c	-0.089493126
198	0x3f15fbb9	0.58587223
199	0x3c8ca121	0.017166676
200	0x3d44d8c9	0.048058305
201	0xbd25ffdb	-0.040527206
202	0x3ead5116	0.33850926
203	0xbec06f54	-0.37584937
204	0x3e07cc5d	0.13261552
205	0xbd751f7e	-0.059844486
206	0x3e02e124	0.12781197
207	0x3e467f19	0.19384421
208	0xbd902053	-0.07037415
209	0xbd97b930	-0.074083686
210	0x3e027fd7	0.1274408
211	0xbf092c23	-0.5358297
212	0xbd3886a1	-0.045050267
213	0xbe2d1df1	-0.16905953
214	0xbde5297d	-0.11189554
215	0xbe1379eb	-0.14401977
216	0xbd975a85	-0.07390312
217	0x3e43aee2	0.19109681
218	0xbeb8dc62	-0.3610564
219	0x3ef30f1b	0.47472462
220	0xbb4615bb	-0.0030225355
221	0x3f2f473d	0.68468076
222	0x3e906463	0.2820159
223	0xbe8d9ae8	-0.27657247
224	0x3e5d3898	0.2160362
225	0xbe3613f4	-0.17781049
226	0x3dc60661	0.096691854
227	0xbd788df5	-0.060682256
228	0x3c3e224b	0.011604856
229	0x3eccaf4d	0.39977494
230	0x3e794d3d	0.2434587
231	0x3e1188ad	0.14212294
232	0x3f57bede	0.84275615
233	0xbeb04b36	-0.3443238
234	0x3f3de345	0.7417491
235	0xbee2e451	-0.44314817
236	0x3ca8057f	0.020510433
237	0x3f147b20	0.58000374
238	0xbebf3285	-0.3734323
239	0x3e7e563f	0.24837588
240	0xbed096ba	-0.40739995
241	0x3e5ad96b	0.21372001
242	0xba9763d0	-0.0011550132
243	0x3d9e0451	0.07715667
244	0xbcb80fa4	-0.022468396
245	0xbef1d0b7	-0.4722955
246	0x3e146709	0.1449243
247	0x3e0f7144	0.14008051
248	0xbf02c65a	-0.5108391
249	0xbf03b37c	-0.51445746
250	0xbd0e95a1	-0.034810666
251	0xbdd41847	-0.10356193
252	0x3d91f135	0.07126085
253	0xbdd767d8	-0.105178535
254	0x3f152279	0.58255726
255	0x3d7b6924	0.061379567

bias_ih_l0 f4 [200]
0	0x3a987020	0.0011630096
1	0x3c02d482	0.007985236
2	0x3e436075	0.19079764
3	0x3e25b935	0.16183932
4	0xbe4de0c1	-0.20105268
5	0xbe4c85b1	-0.19972874
6	0xbd9d58b2	-0.07682933
7	0x3d10704c	0.035263345
8	0x3e366137	0.17810522
9	0xbe35b4c1	-0.17744733
10	0x3c55fd52	0.013060885
11	0x3e7c8f47	0.24664031
12	0x3de2ec6e	0.11080252
13	0x3c018db9	0.0079073245
14	0x3db0093d	0.08595512
15	0x3de9d9e6	0.11418514
16	0xbdfec3b9	-0.12439675
17	0xbd434689	-0.04767469
18	0x3cc58b07	0.024114145
19	0xbe025706	-0.1272851
20	0x3d918768	0.07105905
21	0xbe8660db	-0.2624577
22	0x3d9b0631	0.0756954
23	0x3d53fa22	0.051752217
24	0xbe5e5ddb	-0.2171549
25	0xbdcaf646	-0.09910254
26	0x3e593b74	0.21214086
27	0x3e054f61	0.13018562
28	0x3e3c45f7	0.18386064
29	0x3e9fb84a	0.3119529
30	0xbcadd389	-0.021219032
31	0xbeacdab2	-0.337606
32	0xbe88acdc	-0.2669438
33	0xbe668519	-0.2251171
34	0x3dea8b49	0.11452348
35	0xbd8d471c	-0.06898329
36	0x3e084149	0.13306154
37	0xbd9c9d54	-0.076471955
38	0x3e322db5	0.17400248
39	0xbd8359c3	-0.06413605
40	0x3df42424	0.11920956
41	0x3dfe8651	0.124279626
42	0x3b10c133	0.0022087812
43	0x3e1969cb	0.14981763
44	0xbe8750a3	-0.26428708
45	0x3e724909	0.23660673
46	0x3c7f6461	0.015587897
47	0x3e098457	0.1342939
48	0xbe975ef8	-0.29564643
49	0x3c8084d9	0.015688347
50	0xbcc61bec	-0.024183236
51	0xbce448fc	-0.027866833
52	0x3df90453	0.12159028
53	0x3e3bbdf3	0.18334179
54	0xbe8b67d7	-0.2722766
55	0xbd9e9bda	-0.0774457
56	0xbe09b063	-0.13446192
57	0x3e50b004	0.20379645
58	0x3e4c6985	0.19962128
59	0xbe573381	-0.21015741
60	0xbba382a1	-0.0049899374
61	0x3e8f79ed	0.2802271
62	0x3dce9a13	0.10087981
63	0xbe6f4cf3	-0.23369198
64	0x3bf06dc2	0.007337303
65	0xbe3969ea	-0.1810681
66	0x3e70a817	0.23501621
67	0x3cc44d37	0.0239626
68	0xbda706de	-0.08155607
69	0xbd478155	-0.048707325
70	0x3e5b04b3	0.21388511
71	0x3e5d83af	0.21632265
72	0x3dcc89b9	0.09987206
73	0xbcf385f9	-0.02972697
74	0x3e96c4d2	0.29447037
75	0xbc48ae58	-0.012248598
76	0x3ebe0054	0.37109625
77	0xbe04440d	-0.12916584
78	0x3de8fdb7	0.11376517
79	0x3e959f96	0.29223317
80	0x3e155f59	0.14587153
81	0xba9420c4	-0.0011301269
82	0x3db489ad	0.08815322
83	0x3beb57d3	0.0071821003
84	0x3e398c9a	0.18120041
85	0xbd40ed78	-0.047101468
86	0x3cbf2bc3	0.023336297
87	0xbe773932	-0.24142912
88	0x3dce848d	0.10083876
89	0xbd5864c2	-0.052830465
90	0x3df7bc56	0.12096469
91	0x3e4223b6	0.18958935
92	0x3d988757	0.07447689
93	0x3dbd2673	0.09235849
94	0xbe7cc8ea	-0.24686018
95	0xbd8f36a0	-0.06992841
96	0x3e88d435	0.267244
97	0x3e364680	0.17800331
98	0x3e219ba7	0.15782033
99	0x3e452daa	0.192557
100	0xbe1b2a5a	-0.15152875
101	0xbd90c96f	-0.070696704
102	0xbc8bddb6	-0.017073493
103	0x3e73125f	0.23737477
104	0xbc8d7b00	-0.017270565
105	0x3cf9e4cf	0.030504612
106	0x3d90846c	0.070565075
107	0xbdf258e6	-0.11833362
108	0x3e10ddbd	0.14147086
109	0xbd020f20	-0.031752706
110	0x3d2af6e7	0.04173937
111	0x3d3e1cd5	0.046414215
112	0x3e1e92b1	0.15485646
113	0x3e1e283c	0.15445036
114	0xbad7eac8	-0.0016473169
115	0xbec7dcac	-0.39035547
116	0x3e20c9d5	0.15701993
117	0xbdcf2a11	-0.101154454
118	0xbd5d5c3b	-0.054043036
119	0x3c7acade	0.015307156
120	0xbde0f82f	-0.10984837
121	0x3d50ffe7	0.051025297
122	0x3da52ac6	0.08064799
123	0xbb352539	-0.0027640595
124	0xbdc05e72	-0.09393014
125	0x3d817d92	0.06322779
126	0xbe360b0c	-0.17777652
127	0x3d46a65e	0.048498504
128	0x3d89d69d	0.06730387
129	0xbe044a85	-0.12919052
130	0x3e2fe5f0	0.17177558
131	0x3bdc426e	0.006721786
132	0xbe1ae60c	-0.15126818
133	0xbdc9ff03	-0.09863093
134	0x3d115b25	0.035487313
135	0xbe3e580e	-0.18588278
136	0xbdf8b70e	-0.1214429
137	0xbd64ca74	-0.055857137
138	0x3d670231	0.056398574
139	0xbdc0e3e2	-0.09418465
140	0x3e046ec2	0.12932876
141	0xbe58b195	-0.21161492
142	0xbe045fbb	-0.12927143
143	0x3cec7e74	0.028868891
144	0xbe2e3a8c	-0.17014521
145	0x3ca99c47	0.020704402
146	0x3cf1b56e	0.029505458
147	0xbd9a2d53	-0.07528176
148	0x3e50f8f8	0.20407474
149	0xbe630151	-0.22168471
150	0xbe252de9	-0.16130795
151	0x3dfdf775	0.12400714
152	0x3d1aff37	0.037841048
153	0x3e7dc153	0.24780779
154	0xbc989452	-0.018625412
155	0x3e19fcd5	0.15037854
156	0xbdcf6adf	-0.10127806
157	0x3e83d1a8	0.25745893
158	0x3e74332a	0.23847643
159	0x3e557b79	0.20847882
160	0x3c3039af	0.01075594
161	0xbe42e00c	-0.1903078
162	0x3eb8c24c	0.36085737
163	0x3d9278f4	0.07151976
164	0xbe55200e	-0.20813009
165	0x3e42f9ae	0.19040558
166	0x3e4e8c56	0.20170721
167	0xbb16799d	-0.002296067
168	0xbe73f9ea	-0.23825803
169	0x3de26f62	0.11056401
170	0x3e0f38e8	0.13986552
171	0x3c21bfba	0.009872371
172	0x3e1f4f7a	0.15557662
173	0xbe4558d7	-0.19272171
174	0x3e2f3360	0.17109442
175	0xbd4cccbb	-0.049999934
176	0xbe4fa360	-0.20277166
177	0xbe30a6c0	-0.1725111
178	0x3ead27c2	0.33819395
179	0xbe1ca069	-0.15295567
180	0xbe85bd41	-0.26120952
181	0xbbfd15d0	-0.0077235475
182	0x3e80117a	0.25013334
183	0xbde117b5	-0.1099085
184	0xbe2e7c49	-0.17039599
185	0xbbc5118b	-0.006014054
186	0x3e855f35	0.260492
187	0x3e5ccca5	0.2156244
188	0xbda0dd3e	-0.078546986
189	0xbca226a2	-0.019793812
190	0xbe2674cb	-0.1625549
191	0x3d568201	0.052370075
192	0xbe6a82ef	-0.2290151
193	0xbd942bc3	-0.072349094
194	0x39a16c99	0.00030789225
195	0xbb50ff69	-0.0031890518
196	0x3eaf4554	0.3423258
197	0x3e016c11	0.1263888
198	0x3e318ada	0.17338124
199	0x3d60b7f9	0.05486295

bias_hh_l0 f4 [200]
0	0x3dc2575d	0.094893195
1	0x3e315fd1	0.17321707
2	0x3d7d1104	0.061783805
3	0x3dcf9600	0.10136032
4	0xbe357605	-0.17720802
5	0xbe89e442	-0.2693196
6	0xbd460ef9	-0.048354123
7	0x3e79ed79	0.24406995
8	0x3e5da6ae	0.21645615
9	0xbd9dbd56	-0.077021286
10	0xbe569b85	-0.20957763
11	0x3e69caad	0.22831221
12	0x3c4a0fa4	0.012332831
13	0xbd134978	-0.035958737
14	0x3e2b0079	0.16699399
15	0x3d50b6ef	0.05095571
16	0xbdf1afc1	-0.118011005
17	0xbc2330b6	-0.009960344
18	0x3df8fb18	0.12157267
19	0x3d3151ff	0.04329109
20	0x3ddfb41c	0.10923025
21	0xbe3113a9	-0.17292656
22	0xbcb940f5	-0.022613982
23	0xbdc65665	-0.09684447
24	0xbe2e6f52	-0.17034653
25	0xbdc73d5b	-0.097284995
26	0x3e439c44	0.1910258
27	0xbc3d2d51	-0.011546449
28	0x3e14de17	0.14537846
29	0x3e65f5a7	0.2245699
30	0xbbc55505	-0.006022098
31	0xbe2ebbda	-0.17063847
32	0xbeb0c542	-0.34525496
33	0xbe6e949c	-0.23298877
34	0x3e0a9b0f	0.13535713
35	0xbcf9b784	-0.030483015
36	0x3c537fdd	0.012908903
37	0xbdd94988	-0.10609728
38	0x3caea71f	0.021319924
39	0xbd6e44ae	-0.058170967
40	0x3e93a4ac	0.28836572
41	0x3e76649b	0.24061815
42	0xbd23e6f4	-0.040015176
43	0xbd656929	-0.05600849
44	0xbe963cbf	-0.2934322
45	0x3e7da330	0.24769282
46	0xbcf1e969	-0.029530244
47	0x3ea956fe	0.33074182
48	0xbdcaa314	-0.09894386
49	0xbca54734	-0.020175554
50	0xbd4e140d	-0.05031209
51	0xbe1fca5a	-0.15604535
52	0xbd3a93a5	-0.04555096
53	0x3dad24bd	0.08454273
54	0xbe978353	-0.2959238
55	0xbe1f80aa	-0.15576425
56	0x3ba963db	0.0051693744
57	0x3e4c9faa	0.19982782
58	0x3e66ddf1	0.22545601
59	0xbca91963	-0.020641988
60	0xbe22ed66	-0.15910873
61	0x3eb9ef81	0.3631554
62	0x3e1162fd	0.14197917
63	0xbda87a42	-0.08226444
64	0x3c763e82	0.015029551
65	0x3d869f5c	0.06573364
66	0x3ed78740	0.42095375
67	0xbb05b7f3	-0.0020403832
68	0x3d7df53a	0.062001444
69	0xbc675695	-0.014119764
70	0x3e20d800	0.15707397
71	0x3ddb1e35	0.10699121
72	0x3e32e253	0.17469148
73	0xbe31f321	-0.17377903
74	0x3e5cad1e	0.21550414
75	0x3d99f1a4	0.075167924
76	0x3e852b76	0.2600972
77	0xbe6eb5e6	-0.23311576
78	0x3dc5af47	0.09652572
79	0x3e555803	0.20834355
80	0x3d8529c6	0.06502108
81	0xbe258714	-0.1616481
82	0x3e0e69d9	0.13907565
83	0xbe7a020c	-0.24414843
84	0x3c97c878	0.018528208
85	0x3c8c4e1e	0.017127093
86	0x3e14d815	0.14535554
87	0xbe85a31b	-0.26101002
88	0xbdb179c3	-0.08665802
89	0x3c811bd0	0.015760332
90	0x3e5ff118	0.21869314
91	0x3e1be4ee	0.15224048
92	0x3df9d9cd	0.12199745
93	0xbc3052f5	-0.010761966
94	0xbdece8af	-0.115678184
95	0x3e353442	0.17695716
96	0x3ddaef8b	0.106902204
97	0x3e923f44	0.28563893
98	0x3e150210	0.14551568
99	0x3e774901	0.24148943
100	0x3d68261a	0.05667696
101	0x3e3b2b6c	0.18278283
102	0xbe53f3cd	-0.20698471
103	0x3e3a4345	0.18189724
104	0xbe33500a	-0.17511001
105	0xbdb7f662	-0.08982541
106	0xbcfd2f8c	-0.030906461
107	0xbe47ae77	-0.19500147
108	0xbdd48ac2	-0.103780285
109	0xbd1e59a6	-0.038659714
110	0x3dda3119	0.10653896
111	0x3e33dd4a	0.17564884
112	0x3e69797c	0.22800249
113	0xbd4f00f9	-0.050538037
114	0x3c4ed06d	0.012622935
115	0xbe878194	-0.26466048
116	0xbd22d970	-0.039758146
117	0x3d3d02aa	0.04614512
118	0x3e2635b1	0.16231419
119	0x3cab274e	0.020892765
120	0xbe0f26e0	-0.13979673
121	0x3d0495f1	0.032369558
122	0x3da6ee25	0.08150891
123	0x3db4e70c	0.08833131
124	0xbeadbf39	-0.33934954
125	0xbd818d16	-0.06325738
126	0xbd6484e8	-0.05579081
127	0x3e80d573	0.2516285
128	0x3cf55796	0.02994899
129	0xbcead80d	-0.028667474
130	0x3d686663	0.05673827
131	0xbc7de711	-0.015496985
132	0xbc8927ee	-0.016742673
133	0xbe38dd8a	-0.1805326
134	0x3d042d0b	0.03226952
135	0xbe4bb5b3	-0.19893532
136	0xbde41356	-0.111365005
137	0xbe83e469	-0.257602
138	0x3df2b1bc	0.118503064
139	0x3d0f7cc1	0.035031084
140	0xbc8bd17d	-0.017067665
141	0xbe0cfdf1	-0.13768746
142	0xbd9a8ad7	-0.07546013
143	0xbb5ba8eb	-0.003351743
144	0xbe446690	-0.1917975
145	0xbd3e43c4	-0.046451345
146	0x3d45d1c5	0.048295755
147	0xbe0eceb5	-0.1394604
148	0x3e5f75be	0.21822259
149	0xbe750d55	-0.23930867
150	0xbe040581	-0.12892725
151	0xbd679d72	-0.056546636
152	0x3e2d508f	0.16925262
153	0x3e2ef18b	0.17084329
154	0x3db6ba6c	0.08922276
155	0x3dd48af4	0.10378066
156	0xbd1c09f8	-0.038095444
157	0x3e6f66d6	0.23379073
158	0x3ddf8406	0.10913853
159	0x3df25d56	0.11834209
160	0xbd0a3457	-0.03374132
161	0xbeb612bd	-0.3556117
162	0x3ea1a04a	0.31567603
163	0x3e37dbc0	0.17954922
164	0x3c7728f4	0.015085448
165	0x3db2dc05	0.08733372
166	0x3df090bf	0.11746358
167	0xbe12f756	-0.14352164
168	0xbe3f615c	-0.18689483
169	0x3e6fdeae	0.2342479
170	0x3e311881	0.17294504
171	0x3e27bb91	0.16380145
172	0x3c911167	0.017708493
173	0xbd504099	-0.050842855
174	0x3eaeb5af	0.3412299
175	0x3e25aa31	0.16178204
176	0xbd8cc049	-0.06872613
177	0xbd85cba2	-0.065329805
178	0x3e2633ce	0.162307
179	0x3d54f666	0.051992796
180	0xbe749c88	-0.23887837
181	0x3e3deef4	0.18548185
182	0x3e4b1ff9	0.19836415
183	0xbe174b0e	-0.14774725
184	0xbdb9741a	-0.09055348
185	0xbd8d62b9	-0.069035955
186	0x3d89245a	0.06696387
187	0x3e25f1f5	0.1620558
188	0xbe8977d4	-0.26849234
189	0x3d948ae7	0.07253056
190	0xbe2b4921	-0.16727115
191	0xbd4f9290	-0.050676882
192	0x3cdb0e3e	0.02674019
193	0xbdd92d42	-0.10604335
194	0xbdcc83c9	-0.099860735
195	0x3d2b068b	0.041754287
196	0x3e83d1c8	0.25745988
197	0x3d3d5c48	0.046230584
198	0x3d12ad48	0.035809785
199	0x3c0a60ea	0.008445958

weight_ih_l0_reverse f4 [200, 561]
0	0xbedd2336	-0.43190926
1	0x3f6e50cb	0.9309203
2	0x3f20f6f6	0.6287683
3	0xbdf403a3	-0.11914756
4	0xbece8150	-0.40333033
5	0xbd850daa	-0.06496747
6	0xbd90253d	-0.07038353
7	0xbe3130ce	-0.17303774
8	0xbe37edcb	-0.17961805
9	0xbed3a9a0	-0.4134035
10	0xbe35d3eb	-0.17756622
11	0x3c29f318	0.0103728995
12	0x3e0fa237	0.14026724
13	0x3ecec0b2	0.4038139
14	0x3d9148b5	0.07093946
15	0xbe466db3	-0.19377784
16	0x3e4e51e0	0.2014842
17	0x3e866a4b	0.2625297
18	0x3e35c8d8	0.17752397
19	0xbe071010	-0.13189721
20	0x3db5bd98	0.08874053
21	0xbe218ae4	-0.15775639
22	0xbfa7be4c	-1.3104949
23	0xbf2fef82	-0.68724835
24	0xbedbb49f	-0.4291124
25	0x3f6d779e	0.92760646
26	0xbf1214d4	-0.5706303
27	0x3e7f64f1	0.2494085
28	0xbef3fdbb	-0.47654518
29	0x3eeb86ac	0.46001184
30	0xbf34e480	-0.70661163
31	0xbea5eeb1	-0.3240867
32	0x3ecf4851	0.4048486
33	0x3f53ce3d	0.8273657
34	0xbf434252	-0.7627307
35	0x3caf950b	0.021433374
36	0x3f64715f	0.8923549
37	0x3f2680c0	0.65040207
38	0xbee66716	-0.45000523
39	0xbea176b5	-0.3153588
40	0xbee79154	-0.45228064
41	0x3f99230a	1.1963818
42	0x3f235390	0.6379938
43	0x3ea85839	0.3287981
44	0x3ea72233	0.3264328
45	0x3e5d6fda	0.21624699
46	0x3ec6215e	0.38697332
47	0x3ee81523	0.45328626
48	0x3e8018ec	0.25019014
49	0xbedc6825	-0.43048206
50	0x3fa627cf	1.2980899
51	0x3f506609	0.81405693
52	0xbef9d4c8	-0.48795152
53	0x3f9ccfdd	1.2250935
54	0x3f162217	0.58645767
55	0xbe1d770f	-0.15377448
56	0xbeed8c15	-0.46395937
57	0x3e9d6a55	0.30745187
58	0x3e8bb73a	0.27288228
59	0x3eed9347	0.46401426
60	0x3edce2b1	0.43141702
61	0x3e7733f2	0.2414091
62	0x3e09acdb	0.13444845
63	0x3f4f2e2f	0.80929846
64	0x3e97aea0	0.29625416
65	0x3e08998e	0.13339826
66	0xbe9d74cf	-0.3075318
67	0x3edd85f7	0.4326627
68	0xbef92780	-0.4866295
69	0xbe3f32ae	-0.18671677
70	0xbd146d32	-0.03623695
71	0xbd11533d	-0.035479773
72	0xbe26a372	-0.16273287
73	0x3db7fb5d	0.089834906
74	0xbe1a6325	-0.15076883
75	0x3e19d612	0.15023068
76	0xbe1509a8	-0.14554465
77	0xbef09023	-0.46984968
78	0xbe34f031	-0.17669751
79	0x3eb288bf	0.34869954
80	0xbe120f23	-0.14263587
81	0xbac4ffd2	-0.0015029854
82	0xbc5eae6d	-0.013591391
83	0xbe836d62	-0.2566939
84	0xbdd88b74	-0.105734736
85	0x3d370828	0.044685513
86	0xbdcccab1	-0.09999598
87	0xbebaba62	-0.36470324
88	0x3e4de1f9	0.20105733
89	0x3bbbc448	0.0057301857
90	0x3dda37d0	0.10655177
91	0x3e915b1f	0.28389832
92	0x3e91ec2f	0.28500506
93	0xbd854659	-0.065075584
94	0xbde6d367	-0.112707905
95	0xbe43b26e	-0.19111034
96	0x3e4ecb83	0.20194821
97	0x3e16dc4a	0.14732471
98	0x3e8ccb47	0.27498838
99	0xbe6c42bc	-0.23072332
100	0xbe4c04fe	-0.1992378
101	0x3c4f5677	0.012654892
102	0xbfbcbcfc	-1.4745173
103	0xbfb27c63	-1.394421
104	0xbf948d66	-1.1605651
105	0x3f6a93e5	0.9163192
106	0x3e1cd930	0.15317225
107	0x3eb78bbb	0.35848793
108	0x3f1e5752	0.6185199
109	0x3ef0ced3	0.47032794
110	0xbec478d2	-0.3837343
111	0xbf19283d	-0.59827024
112	0xbd24b922	-0.04021562
113	0x3f305b88	0.68889666
114	0xbf4ae033	-0.7924835
115	0xbe2501c8	-0.1611396
116	0x3f0a1c58	0.539495
117	0x3dcb1899	0.09916801
118	0xbeb65846	-0.35614222
119	0xbdf4d0b1	-0.11953867
120	0xbd226de6	-0.03965559
121	0x3ef054b8	0.46939635
122	0xbf33a4b1	-0.70173174
123	0xbc297ef5	-0.01034521
124	0xbdf1a61c	-0.11799261
125	0x3dcf65a6	0.1012681
126	0xbd95a6e3	-0.07307222
127	0xbe0fabf8	-0.14030445
128	0xbd5b8e2b	-0.05360238
129	0xbd5f387f	-0.05449724
130	0x3dfa8c67	0.12233811
131	0xbe43ff81	-0.19140436
132	0xbe8e4081	-0.27783588
133	0xbdb7b88f	-0.08970749
134	0xbe405809	-0.18783583
135	0xbe149ef4	-0.14513761
136	0x3dae8870	0.08522117
137	0x3ea0876f	0.31353328
138	0x3df24ec0	0.118314266
139	0xbe515a64	-0.20444638
140	0xbe1ca6bd	-0.1529798
141	0x3d76bdbf	0.06023955
142	0xbea150a2	-0.3150683
143	0xbf2663aa	-0.64995825
144	0xbf8835f7	-1.0641469
145	0x3f2450ac	0.64185596
146	0xbf2af91c	-0.6678636
147	0x3e8ea13c	0.27857387
148	0x3f83cea7	1.029744
149	0x3e8c54f2	0.27408558
150	0xbd7c5ebd	-0.061613787
151	0xbce10799	-0.027469443
152	0xbe608a3b	-0.2192773
153	0x3efd4d42	0.49473006
154	0xbf360e77	-0.7111582
155	0x3eb4fc2e	0.35348648
156	0x3e0b0427	0.13575803
157	0x3f0a37a4	0.5399115
158	0x3f2da490	0.6782923
159	0xbf730af8	-0.9493861
160	0x3ec45f91	0.3835416
161	0x3e81b603	0.25334176
162	0x3e8dc824	0.27691758
163	0xbd75ca40	-0.060007334
164	0x3e533e87	0.20629321
165	0xbd1bf7e0	-0.03807819
166	0xbde8bf3f	-0.11364602
167	0x3e602379	0.21888532
168	0x3df81bd7	0.12114685
169	0x390ec9ce	0.00013617353
170	0x3e7398a8	0.23788702
171	0x3e5ac7ea	0.21365324
172	0xbd8ab8c3	-0.06773522
173	0xbe8f5a45	-0.27998558
174	0xbe4ee70a	-0.20205322
175	0x3ced0bea	0.028936345
176	0x3e643ebb	0.22289555
177	0x3e713f41	0.23559286
178	0x3de99383	0.11405089
179	0xbcce013c	-0.025147073
180	0x3dd57b9c	0.10423967
181	0xbd7cb5f7	-0.061696973
182	0xbf916a15	-1.1360499
183	0xbf9269b3	-1.1438507
184	0xbf9e8cd7	-1.2386731
185	0x3f1bdd10	0.6088419
186	0xbf709175	-0.9397195
187	0x3cf01bfd	0.02931022
188	0xbe88c292	-0.26710945
189	0x3dfeb4f0	0.12436855
190	0xbeb8c4a0	-0.36087513
191	0x3e9c6f1a	0.30553514
192	0xbf00807a	-0.5019604
193	0x3f1b13b2	0.6057693
194	0xbf78c64d	-0.9717758
195	0x3cbdf24c	0.023186825
196	0xbe10d69e	-0.1414437
197	0x3d87e38a	0.066351965
198	0x3e18c13d	0.14917465
199	0x3e9f1633	0.31071624
200	0xbe36d572	-0.1785486
201	0x3e5175cf	0.20455097
202	0x3e761e34	0.24034959
203	0xbdd623b3	-0.10456028
204	0x3dca77f8	0.098861635
205	0xbdf6630f	-0.12030613
206	0x3c6ae92d	0.01433782
207	0x3e77b57b	0.24190323
208	0xbf6d25b4	-0.92635655
209	0x3da59629	0.080852814
210	0xbd74c646	-0.0597594
211	0xbcfa6868	-0.030567363
212	0xbe838996	-0.25690907
213	0xbeaa2659	-0.33232382
214	0x3d3d0f9d	0.046157468
215	0x3dc87ede	0.09789823
216	0xbd940f40	-0.07229471
217	0xbda4fa5e	-0.08055566
218	0xbe800f46	-0.25011653
219	0x3dc7f606	0.09763722
220	0x3e656f87	0.22405826
221	0xbf6a6686	-0.9156269
222	0x3e9de5b7	0.3083932
223	0xbe34516b	-0.17609183
224	0xbdf6d7c1	-0.120528705
225	0xbdc33606	-0.095317885
226	0xbe214ace	-0.15751192
227	0xbd7a2887	-0.061073806
228	0xbe33f97e	-0.17575642
229	0xbe272bf4	-0.1632536
230	0x3d3b332b	0.045703094
231	0xbe7d6972	-0.24747255
232	0x3e0994fc	0.1343574
233	0xbe2ab94c	-0.16672248
234	0xbfb02daa	-1.3763936
235	0x3f407304	0.751755
236	0xbed4acf6	-0.4153821
237	0xbd7403f6	-0.05957409
238	0xbe341e91	-0.17589785
239	0xbe720e9b	-0.23638384
240	0x3e676104	0.22595602
241	0x3dff193f	0.12455987
242	0x3d9c3fc7	0.07629352
243	0xbd7eef50	-0.062239945
244	0xbd6fb145	-0.058518667
245	0x3e4858b8	0.19565094
246	0x3c08c329	0.008347311
247	0xbf3eba23	-0.7450277
248	0xbe0d8f25	-0.13824137
249	0x3db782af	0.08960473
250	0xbef8bb41	-0.48580363
251	0x3f24c1f5	0.64358455
252	0x3e3cb4c0	0.18428326
253	0x3c2f33d8	0.010693513
254	0x3e25449e	0.16139457
255	0x3e7fd3fc	0.2498321

weight_hh_l0_reverse f4 [200, 50]
0	0x3befce6c	0.0073183086
1	0xbd834702	-0.06410028
2	0x3f42d0d6	0.7609991
3	0x3f5b16cc	0.8558166
4	0x3f00f327	0.5037102
5	0xbf345738	-0.70445585
6	0x3f712faf	0.94213384
7	0xbe186d1f	-0.14885376
8	0x3a27fd4c	0.00064082886
9	0xbd83a349	-0.064276285
10	0xbea498d4	-0.3214785
11	0x3d537483	0.051624786
12	0x3dfe6d87	0.124232344
13	0x3ed8ceb4	0.42345202
14	0x3dd1a6d8	0.10236901
15	0xbdec9c3d	-0.115532376
16	0xbd957e80	-0.072995186
17	0x3ee949f1	0.45564225
18	0x3dd73d33	0.1050972
19	0xbf2c464e	-0.67294776
20	0xbed678e8	-0.4188912
21	0xbce3fddb	-0.027831009
22	0xbf1d6c37	-0.6149325
23	0xbf5508b8	-0.8321643
24	0x3f126eb5	0.57200176
25	0x3e300ff4	0.17193586
26	0xbd9dc512	-0.07703604
27	0xbee64698	-0.44975734
28	0xbee8050c	-0.4531635
29	0x3cbe56ec	0.023234807
30	0xbdacf536	-0.08445208
31	0x3ed2ccf9	0.41172007
32	0x3d2023df	0.03909671
33	0xbe6d8b8d	-0.23197766
34	0x3e451d12	0.1924937
35	0xbce3a642	-0.027789239
36	0xbe63dff3	-0.22253399
37	0x3d81834f	0.06323873
38	0x3d3dc514	0.046330526
39	0xbe6f7dc0	-0.23387814
40	0x3f273e07	0.6532902
41	0xbe1b4676	-0.15163597
42	0x3dc715c3	0.097209476
43	0x3d8123c9	0.063056536
44	0xbec9d797	-0.39422294
45	0xbf49eaa2	-0.78873646
46	0xbf82917d	-1.020065
47	0xbd979801	-0.07402039
48	0x3e4f16a2	0.20223477
49	0xbdb48b54	-0.08815637
50	0x3dee8ca5	0.116479196
51	0xbee9dee5	-0.45677868
52	0xbde1ab6b	-0.110190235
53	0xbe899680	-0.26872635
54	0xbdcd5ab9	-0.100270696
55	0xbe800e69	-0.25010994
56	0x3e9698cf	0.2941346
57	0x3d068c85	0.032848854
58	0x3d623260	0.055223823
59	0x3d3b3dd4	0.04571326
60	0xbebf2ce7	-0.37338945
61	0x3db11e0f	0.08648311
62	0x3d834723	0.064100526
63	0xbe89afb6	-0.2689187
64	0xbda07d92	-0.07836451
65	0x3de2be08	0.11071402
66	0xbe1f2ac3	-0.15543656
67	0x3e3743b0	0.17896914
68	0xbe06fca8	-0.13182318
69	0xbe01c4d6	-0.12672743
70	0xbd88914f	-0.066683404
71	0xbd7f7d7c	-0.06237553
72	0x3e8da9fb	0.27668747
73	0x3e44961f	0.19197892
74	0x3d76c8b6	0.060250007
75	0xbc6c9574	-0.014439929
76	0xbde7d2eb	-0.11319526
77	0x3e428ecd	0.18999787
78	0xbcee94bc	-0.029123656
79	0xbdb415b2	-0.087932006
80	0xbed4429f	-0.41457078
81	0xbeb2fdd2	-0.34959275
82	0x3dba8cda	0.091088966
83	0x3e809627	0.25114557
84	0xbe864a09	-0.2622836
85	0xbed5e1d1	-0.41773847
86	0xbe018868	-0.12649691
87	0xbea10e9f	-0.31456468
88	0xbe37fa0e	-0.17966482
89	0x3f2a67c3	0.6656458
90	0xbe35460e	-0.17702505
91	0x3e0d8ae8	0.1382252
92	0x3ed49adb	0.41524395
93	0x3e5aca00	0.2136612
94	0xbf32300a	-0.6960455
95	0x3e0faaa2	0.14029935
96	0x3e819880	0.2531166
97	0x3dbb05f7	0.09131997
98	0xbd5917e3	-0.053001296
99	0x3e7a0f9f	0.24420021
100	0x3d1495b6	0.036275588
101	0x3dd25412	0.102699414
102	0xbe2b9c22	-0.16758779
103	0xbde1fe2b	-0.11034807
104	0xbd7ba7b4	-0.06143923
105	0xbe12ed95	-0.14348443
106	0xbe918689	-0.28422955
107	0x3d05ffaf	0.032714542
108	0x3d88a107	0.066713385
109	0xbcefe68d	-0.02928474
110	0xbe32f366	-0.17475662
111	0x3d6a323b	0.05717681
112	0x3cd2c80e	0.02573016
113	0x3cd436f0	0.025905102
114	0x3dbcbf83	0.092162155
115	0x3e228e7c	0.15874666
116	0xbe1ffe53	-0.1562436
117	0xbe973271	-0.2953067
118	0xbe55c49a	-0.20875779
119	0x3e3e486c	0.18582314
120	0x3e027278	0.12738979
121	0x3b2eb118	0.002665585
122	0x3dd7c65d	0.10535882
123	0xbe2091e7	-0.15680657
124	0xbea122f5	-0.31471983
125	0x3df12ad3	0.11775746
126	0xbc069372	-0.008213865
127	0xbc0a0a39	-0.008425289
128	0x3ee7271f	0.45147035
129	0x3de4ed68	0.11178094
130	0x3da3e59b	0.08002778
131	0xbee4026a	-0.44533092
132	0xbd15d2b4	-0.036577895
133	0xbd65e949	-0.05613068
134	0x3e053ffd	0.13012691
135	0xbe0b25d2	-0.13588646
136	0xbc029bdf	-0.007971733
137	0xbd283dbf	-0.04107451
138	0x3e150f0f	0.14556526
139	0x3e1a2206	0.15052041
140	0x3d1a6122	0.03769029
141	0xbd909c50	-0.07061064
142	0x3d961ab8	0.07329315
143	0xbd7e9f99	-0.062163923
144	0x3d81971b	0.06327649
145	0x3ee2c75f	0.44292733
146	0x3ef5d314	0.48012602
147	0x3e1300d5	0.14355786
148	0x3d05c9d8	0.032663196
149	0x3d1fd76c	0.0390238
150	0xbc78cf08	-0.015186079
151	0x3e098369	0.13429035
152	0xbf061f4c	-0.52391505
153	0xbe45fe9b	-0.19335406
154	0x3d11b9bd	0.035577524
155	0xbc981e23	-0.018569058
156	0xbe49b89f	-0.19699334
157	0xbda0ac17	-0.078453235
158	0x3cef783d	0.029232139
159	0x3d04dd60	0.032437682
160	0x3e1c19d0	0.15244222
161	0x3deb8f51	0.11501945
162	0xbd05c4a6	-0.03265824
163	0xbd9ca738	-0.07649082
164	0xbde6227e	-0.112370476
165	0xbd07a0b8	-0.033112258
166	0xbe45cfbe	-0.19317529
167	0xbd6afcba	-0.057369925
168	0xbe28d695	-0.16488107
169	0x3e299802	0.16561893
170	0x3e16551c	0.14680904
171	0x3e1f0c5a	0.15532055
172	0x3e26a273	0.16272907
173	0x3e7343d8	0.23756349
174	0xbddb007c	-0.10693452
175	0x3e174b8a	0.1477491
176	0xbd30221d	-0.043001283
177	0xbaf79d44	-0.0018891473
178	0x3e98f14f	0.29871604
179	0xbd3de05e	-0.04635655
180	0x3e8d0e09	0.2754977
181	0xbeb98bcc	-0.3623947
182	0xbdd9cd2d	-0.10634837
183	0x3ef18d56	0.47178143
184	0xbe685dfe	-0.22692105
185	0x3e1ff36e	0.15620205
186	0xbe351bdd	-0.1768641
187	0x3d82826f	0.063725345
188	0x3e55cb9a	0.20878449
189	0x3d92c975	0.07167331
190	0x3d476a3b	0.048685294
191	0xbdd14925	-0.10219029
192	0xbe132179	-0.14368238
193	0xbe7b91f5	-0.24567397
194	0x3b85464d	0.0040672184
195	0x3e86595e	0.26240057
196	0x3e83e779	0.25762537
197	0xbd8469f1	-0.06465519
198	0xbd095d18	-0.033536047
199	0xbd82e564	-0.06391409
200	0x3d4e5530	0.05037421
201	0xbd063182	-0.032762058
202	0x3db7696f	0.08955657
203	0xbe1b3d3b	-0.15160076
204	0x3dfe4be0	0.12416816
205	0x3e19c6a2	0.15017179
206	0xbe1dba3e	-0.15403077
207	0xbda6d887	-0.08146768
208	0xbbe7b56a	-0.007071187
209	0x3cde8a60	0.027165592
210	0x3dfdc201	0.12390519
211	0xbe302710	-0.17202401
212	0x3c1823e0	0.009285897
213	0xbe32aa24	-0.17447716
214	0x3d172475	0.036900003
215	0xbe26ba41	-0.16281988
216	0xbd172020	-0.03689587
217	0xbdc9b106	-0.09848218
218	0x3ca33e30	0.019927114
219	0x3e11d1d1	0.14240195
220	0xbd8747f3	-0.0660552
221	0x3e000cc3	0.12504868
222	0x3dbd453d	0.09241722
223	0xbce469ef	-0.027882544
224	0x3e05c4f7	0.13063417
225	0xbc4a2ec8	-0.012340255
226	0x3d6e89fa	0.058237053
227	0xbe56726c	-0.20942086
228	0x3b7c4dac	0.0038498444
229	0x3c4914cb	0.012273024
230	0x3d7d8bab	0.061900776
231	0xbdd8a077	-0.10577481
232	0x3d6de600	0.058080673
233	0x3dceb76c	0.10093579
234	0xbe494c4b	-0.1965801
235	0x3d5e54c1	0.054280046
236	0x3cd4bebd	0.025969857
237	0x3df6c323	0.12048938
238	0x3d8ce2a8	0.06879169
239	0xbcd49bff	-0.025953291
240	0xbd1f5aed	-0.038905073
241	0xbe08c255	-0.13355382
242	0x3e004a56	0.12528357
243	0x3d068a39	0.032846663
244	0x3dcd1a2a	0.10014756
245	0xbe0a0353	-0.1347783
246	0xbe22d0f1	-0.15900017
247	0xbd26a25d	-0.040682185
248	0xbdee1c8d	-0.116265394
249	0x3d0c2432	0.034214206
250	0x3c4dbd8a	0.012557397
251	0x3d0a58c5	0.033776063
252	0xbf11a8c1	-0.56898123
253	0xbeb54e8e	-0.35411495
254	0xbe0f42ac	-0.13990277
255	0xbf0e1db1	-0.55514055

bias_ih_l0_reverse f4 [200]
0	0xbe38b631	-0.1803825
1	0xbe344567	-0.176046
2	0x3d987f24	0.07446125
3	0x3e56bd6c	0.20970696
4	0x3d50b475	0.050953347
5	0x3ead333c	0.3382815
6	0x3d894220	0.067020655
7	0xbe0466f4	-0.12929899
8	0x3e144e6f	0.14483045
9	0x3d241d1d	0.040066827
10	0x3dd035f2	0.10166539
11	0x3e42cb3c	0.1902284
12	0x3d8e7469	0.06955797
13	0x3ba5746b	0.0050492785
14	0x3dd55c87	0.10418039
15	0x3e26fd5c	0.16307586
16	0xbbf46e66	-0.0074594496
17	0x3cea2b34	0.028585054
18	0x3dfd683d	0.123733975
19	0x3e106ee6	0.14104804
20	0x3ecdcfa7	0.4019749
21	0xbd4a126e	-0.049333982
22	0xbcf7117d	-0.030159706
23	0x3dd6b01d	0.1048281
24	0xbe1c48e2	-0.15262178
25	0x3dae05a3	0.08497169
26	0xbe13420b	-0.14380662
27	0x3e876b27	0.26448938
28	0x3e28143a	0.16413966
29	0xbe59d601	-0.21273042
30	0xbd83db65	-0.064383306
31	0x3e1cebc4	0.15324312
32	0x3d199184	0.03749229
33	0x3def4154	0.11682382
34	0x3e69968d	0.22811337
35	0x3eae2a22	0.3401652
36	0x3c1676c8	0.009183593
37	0x3e99df55	0.300532
38	0xbe423128	-0.18964064
39	0x3dde7e79	0.108639665
40	0xbdda7968	-0.10667688
41	0x3defbe7c	0.11706254
42	0xbd9e45a9	-0.0772813
43	0x3df72f2e	0.12069546
44	0xbd9fde5f	-0.07806086
45	0x3c593e60	0.0132595
46	0xbc3b3658	-0.011426531
47	0x3d3c87e3	0.04602803
48	0xbe1fa5de	-0.15590617
49	0xbe37ae29	-0.1793753
50	0xbd7d99cc	-0.06191425
51	0x3c2d3166	0.01057086
52	0x3e4ec7fd	0.20193477
53	0x3e40046b	0.18751685
54	0x3e049364	0.1294685
55	0xbe3d624e	-0.18494532
56	0x3d8585d8	0.06519669
57	0x3d8c9581	0.06864453
58	0xbd2bb295	-0.041918356
59	0x3e024aa3	0.12723784
60	0xbdd50ed9	-0.104032226
61	0x3e9ad90d	0.30243722
62	0x3cc253c2	0.02372158
63	0x3df9dc74	0.12200251
64	0xbdab81a5	-0.08374337
65	0xbcb87e06	-0.02252103
66	0xbd3c6dd2	-0.04600317
67	0x3de27d59	0.110590644
68	0x3e419286	0.1890355
69	0x3de69a46	0.11259894
70	0xbe5198a5	-0.20468386
71	0xbe1fd016	-0.15606722
72	0x3ddab6ed	0.106794216
73	0xbd905314	-0.07047096
74	0xbea964a0	-0.33084583
75	0xbe286abb	-0.16446964
76	0x3d20f621	0.039297227
77	0xbe00900f	-0.12554954
78	0xbc71eaab	-0.014765422
79	0xbcf9677f	-0.030444859
80	0x3d3f3e06	0.04669001
81	0x3ebf7579	0.37394312
82	0xbde146d4	-0.109998375
83	0xbe07d73e	-0.13265702
84	0x3dcd50ae	0.10025154
85	0xbd9568d4	-0.07295385
86	0xbc8ff5b4	-0.017573215
87	0x3da8f1f4	0.08249274
88	0x3e144d2a	0.14482561
89	0x3c478f81	0.01218021
90	0x3e990854	0.29889166
91	0xbd0ba867	-0.034096148
92	0xbea8bb77	-0.32955524
93	0xbc8faefc	-0.017539494
94	0x3b73ca29	0.0037199354
95	0x3c6a9aee	0.014319165
96	0x3e8e5ae9	0.27803734
97	0xbe62b163	-0.2213798
98	0xbe0af217	-0.13568912
99	0x3df3cbc5	0.119041
100	0xbcef4c32	-0.029211137
101	0xbc4f8b86	-0.012667542
102	0xbddb128a	-0.106968954
103	0xbeb0e4d7	-0.3454959
104	0xbdd6be1a	-0.10485478
105	0x3bffda06	0.007807973
106	0xbe285d26	-0.16441783
107	0xbcac4099	-0.021026896
108	0x3cbbc83a	0.022922624
109	0xbe258607	-0.16164409
110	0xbd2a934d	-0.041644383
111	0x3c870814	0.016483344
112	0xbc929aba	-0.017896045
113	0x3ae85a99	0.0017727196
114	0x3d74e040	0.059784174
115	0x3d11abc7	0.03556421
116	0xbce4ebe8	-0.02794452
117	0xbc6f6f1b	-0.014613892
118	0xbdc6192a	-0.096727684
119	0x3deea251	0.11652053
120	0xbc57b8b2	-0.013166593
121	0x3dd9fc12	0.10643782
122	0x3ea4a7c7	0.32159254
123	0x3e69ea4c	0.22843283
124	0x3e92138f	0.28530547
125	0x3dd7f968	0.10545617
126	0xbd587833	-0.052849006
127	0xbdf4b53b	-0.119486295
128	0x3e30d2cb	0.17267911
129	0x3c9d0029	0.019165115
130	0xbe232bdc	-0.159347
131	0x3d2ef81a	0.042717077
132	0x3e58614b	0.21130864
133	0x3dc1e996	0.09468381
134	0xbe88d5b6	-0.26725549
135	0x3cd57cb9	0.026060449
136	0x3e872a47	0.26399443
137	0xbe1c0f04	-0.15240103
138	0xbdf90d3f	-0.121607296
139	0x3e409a71	0.18808915
140	0xbd8c56bb	-0.0685248
141	0x3e0b7ffd	0.13623042
142	0xbe4871a2	-0.19574597
143	0xbd8a2a4f	-0.06746351
144	0xbe02894a	-0.12747684
145	0xbc480139	-0.012207323
146	0x3d8be59d	0.06830905
147	0x3dc2d85d	0.09513924
148	0x3e253b3e	0.1613588
149	0x3e22fe25	0.15917261
150	0x3d904931	0.0704521
151	0x3e445802	0.19174197
152	0x3d84d879	0.064866014
153	0x3e7572c5	0.23969562
154	0x3d091b37	0.03347322
155	0x3d69ab59	0.057048175
156	0x3cddb1fe	0.027062412
157	0xbc1c4ff3	-0.009540546
158	0x3d42af14	0.04753025
159	0xbd94c16d	-0.072634555
160	0x3e841146	0.2579443
161	0xbe41af2c	-0.18914479
162	0xbe20dabd	-0.15708442
163	0xbddd40a1	-0.108033426
164	0xbc07c005	-0.008285527
165	0xbe98482c	-0.29742563
166	0xbe34a2e5	-0.17640264
167	0x3d82f547	0.06394439
168	0xbe242eb8	-0.16033447
169	0x3ebb1f89	0.36547497
170	0x3d9b2059	0.07574529
171	0xbe6771c5	-0.22601993
172	0x3e458354	0.19288379
173	0x3ebcd15a	0.36878473
174	0x3def82e8	0.1169489
175	0xbe5b7b5a	-0.21433774
176	0xbcdfa80d	-0.027301813
177	0x3a15589e	0.0005697104
178	0x3ea06f8c	0.31335104
179	0xbcf85c54	-0.030317463
180	0x3d82ec88	0.06392771
181	0xbef52cf1	-0.4788585
182	0xbe81b0c0	-0.25330162
183	0x3e5fab98	0.21842802
184	0xbd8e7745	-0.069563426
185	0x3e66f9b7	0.22556196
186	0xbcf18eff	-0.029487131
187	0xbe196b54	-0.14982349
188	0x3ddbe17c	0.10736367
189	0x3e4cf02d	0.20013495
190	0x3e57a462	0.21058801
191	0xbe919cf2	-0.28440052
192	0x3e7b2d2a	0.24528947
193	0xbe161e68	-0.14660037
194	0xbcde951c	-0.02717071
195	0x3e2706c8	0.1631118
196	0x3d50efa2	0.05100978
197	0x3baa9454	0.0052056704
198	0xbe1e836a	-0.15479818
199	0x3e7b7478	0.24556148

bias_hh_l0_reverse f4 [200]
0	0xbe6836ac	-0.22677106
1	0xbe28612c	-0.16443318
2	0x3e2ad596	0.16683039
3	0x3e0f2ea1	0.13982631
4	0x3dd97a6d	0.10619054
5	0x3ebb9f50	0.36644983
6	0x3e002b72	0.12516573
7	0xbe4c93eb	-0.19978301
8	0x3c814417	0.015779538
9	0x3e0d5ba7	0.13804494
10	0x3da16364	0.078802854
11	0xbdbb63ad	-0.09149871
12	0x3e336dd6	0.17522368
13	0x3d9a1e79	0.075253434
14	0xbd15fbcd	-0.03661709
15	0xbd8a1479	-0.06742186
16	0xbe383a64	-0.17991024
17	0xbc339985	-0.010961895
18	0x3d01bd6b	0.031674784
19	0x3ec819c5	0.3908216
20	0x3ea078b7	0.31342098
21	0xbd3b7cfc	-0.04577349
22	0xbe88428f	-0.2661328
23	0x3ea87e6e	0.32908958
24	0xbe20c4aa	-0.15700021
25	0x3d33d2a6	0.043902062
26	0xbd9dac26	-0.0769885
27	0x3e7bfb1b	0.24607508
28	0x3e79154b	0.24324529
29	0xbe74debf	-0.23913096
30	0xbd8fbae3	-0.07018068
31	0x3e898d99	0.26865843
32	0x3e049be3	0.12950091
33	0x3e467d36	0.19383702
34	0x3e67257e	0.22572896
35	0x3eff8d48	0.49912477
36	0xbdaf3b34	-0.08556214
37	0x3e6ee383	0.23328976
38	0xbd6ca7ed	-0.057777334
39	0x3daea2e4	0.08527163
40	0x3d8062b5	0.06268827
41	0x3dbeda52	0.09318985
42	0xbc71044f	-0.0147105
43	0xbb9285d9	-0.0044715223
44	0xbd8bfb2b	-0.06835016
45	0x3ca8d8fd	0.02061128
46	0x3dde7684	0.10862449
47	0xbcbcface	-0.023068812
48	0x3d569372	0.05238671
49	0xbe943ba0	-0.2895174
50	0xbdb76b09	-0.08955962
51	0xbd85aaa2	-0.06526686
52	0x3e153306	0.14570245
53	0x3e14b664	0.14522702
54	0x3d6cdefd	0.057829846
55	0xbe7e104e	-0.24810907
56	0xbd3a6dac	-0.045514748
57	0x3d50baa6	0.05095925
58	0xbd0affde	-0.03393542
59	0x3e7d453d	0.24733444
60	0xbdf26bd8	-0.11836976
61	0x3e8e9a9e	0.2785234
62	0x3e496cf5	0.1967047
63	0x3e06932a	0.13142076
64	0xbccc96c7	-0.02497424
65	0xbdae271c	-0.08503553
66	0xbcb0fb4f	-0.021604208
67	0x3e167b6a	0.14695516
68	0x3dff0613	0.124523304
69	0x3dc01fe2	0.09381081
70	0xbdea9f11	-0.11456121
71	0xbd992d36	-0.074793264
72	0x3ec0a3ab	0.3762487
73	0xbe7711c2	-0.24127868
74	0xbf01771e	-0.50572383
75	0xbe00c3c2	-0.12574676
76	0x3dbc8d42	0.0920663
77	0xbc86a1eb	-0.01643463
78	0xbc9e1111	-0.019295247
79	0xbdc77979	-0.09739966
80	0x3e09d811	0.13461329
81	0x3df3eec9	0.11910779
82	0xbdad3e29	-0.08459122
83	0xbe276917	-0.16348682
84	0x3afe5eb8	0.001940689
85	0xbdd8b8d7	-0.105821304
86	0x3d23e9ec	0.040018007
87	0x3e387005	0.18011482
88	0x3e7ec027	0.24877988
89	0x3d1bb1c2	0.03801132
90	0x3e76474b	0.24050634
91	0xbdfc42d4	-0.12317434
92	0xbe61e36e	-0.22059414
93	0x3e27208c	0.1632101
94	0x3dac5f24	0.08416584
95	0xbe30b88d	-0.172579
96	0x3cd28e62	0.025702659
97	0xbe458c15	-0.19291718
98	0xbe4d8c3e	-0.2007303
99	0x3d91e3e5	0.071235456
100	0x3e13483c	0.14383024
101	0x3da3d2b7	0.07999175
102	0xbcfe2408	-0.03102304
103	0xbeb7ee9f	-0.3592424
104	0xbdb80768	-0.08985788
105	0x3e44bee1	0.1921344
106	0xbda20102	-0.079103485
107	0xbd9e11bb	-0.077182256
108	0x3e09f9ac	0.13474149
109	0x3da6255d	0.08112595
110	0x3dcc211f	0.09967255
111	0xbd9a6332	-0.07538451
112	0xbc95fc62	-0.018308822
113	0xbb93c1cf	-0.004509188
114	0xbe0deeea	-0.1386067
115	0x3db981ac	0.09057936
116	0x3d945444	0.07242635
117	0xbe2dc8ea	-0.16971174
118	0xbdd6e69b	-0.10493203
119	0x3e3a1a39	0.18174066
120	0x3dab8fd0	0.083770394
121	0xbd1235ff	-0.035696026
122	0x3dd3cb51	0.10341514
123	0x3e2108c6	0.15726003
124	0x3e1e6b4c	0.15470618
125	0xbe26931d	-0.16267057
126	0x3e085155	0.13312276
127	0x3dd7b12c	0.1053184
128	0x3e73d977	0.23813425
129	0xbe02ac8e	-0.12761137
130	0xbe43b7f5	-0.19113143
131	0xbcc90afe	-0.024541374
132	0x3e9f6771	0.31133607
133	0x3dc51589	0.09623248
134	0xbe5f5cba	-0.21812716
135	0x3ae337ed	0.0017335393
136	0x3e8fd5ad	0.2809271
137	0xbde2e81d	-0.11079428
138	0xbd041899	-0.03225002
139	0x3e108fef	0.14117406
140	0xbe1aa799	-0.15102996
141	0xbcd782ce	-0.02630749
142	0x3d88a7ab	0.06672605
143	0xbdbc36eb	-0.09190162
144	0xbc6acae9	-0.014330604
145	0x3e5336c0	0.20626354
146	0xbd162804	-0.036659256
147	0x3dc83bf0	0.09777057
148	0x3dbfdc62	0.093682066
149	0x3e1687b5	0.14700206
150	0xbd64b2ae	-0.055834465
151	0x3eb7c511	0.35892537
152	0x3e42f345	0.19038112
153	0x3ddc836a	0.10767253
154	0xbe3164af	-0.17323564
155	0x3db80772	0.08985795
156	0x3dc286f9	0.094984
157	0x3e2d664f	0.16933559
158	0xbda7931b	-0.08182355
159	0xbe83be9c	-0.2573136
160	0x3e96f800	0.29486084
161	0xbddd2367	-0.10797768
162	0xbe059a90	-0.13047242
163	0x3d196299	0.037447546
164	0xbd9ab8c2	-0.07554771
165	0xbeac8b1b	-0.3369988
166	0xbe6869a6	-0.22696552
167	0x3e59a137	0.21252905
168	0xbd8cd09e	-0.06875728
169	0x3e3f2f03	0.18670277
170	0x3dac7a69	0.084217854
171	0xbe534ccf	-0.20634769
172	0x3ea3249e	0.31863874
173	0x3e3e0fba	0.18560687
174	0xbc5114b0	-0.01276128
175	0xbd8a7251	-0.067600854
176	0xbc04a108	-0.0080950335
177	0x3d47ca3e	0.048776858
178	0x3efaf2b4	0.49013293
179	0xbc4a43c6	-0.01234526
180	0x3e2ecb2f	0.17069696
181	0xbebc0b43	-0.36727342
182	0xbdb63ce8	-0.08898336
183	0x3e2f2609	0.17104353
184	0x3d1970bb	0.037461024
185	0x3e5983fd	0.21241756
186	0xbe11fb81	-0.14256097
187	0xbe0e3106	-0.13885888
188	0x3d50cf8f	0.050979193
189	0x3cd7a147	0.02632202
190	0x3d927c0b	0.071525656
191	0xbda36f4c	-0.079802126
192	0x3ea1f743	0.31633958
193	0xbe67ac14	-0.22624236
194	0x3d5bfa08	0.053705245
195	0x3db56cc0	0.08858633
196	0x3e5fad98	0.21843565
197	0xbbd0c0f8	-0.00637066
198	0xbde880d9	-0.11352701
199	0x3e9871eb	0.29774413
