models/provided_cnn.pt (torch, 57786 bytes, 6 tensors)

weight f4 [64, 1, 3]
00000000: 2bf6 a4bf ea29 40bf f97f fb3e 2844 2840
00000010: 549c 97bf 3ccd fe3f f6cd c33d cc6d 7fbf
00000020: 1255 00bf b1c5 cdbe 94b7 03bf a6c7 8fbf
00000030: 3e0e e0be caca e2be 1a0d c5bd 3c69 81be
00000040: f8db f23f 6018 bd3f f1c5 2940 b962 0440
00000050: 7f68 5f3e 9c0b d53d e7cf 3cbe 684d 153f
00000060: 5c6c e43f c2c7 a73f bd7b 20c0 78ab bb3d
00000070: 19e2 913d b33d ebbe 596b c2bf b25b 83bf
00000080: 51b5 243f 3873 d83f 42d2 a3bf fd1e f6bf
00000090: 52ec b33e 8e4e 653c dd3a 9cbe e40f 0b3e
000000a0: 0b5b 95bf 7215 2abf 6ab0 d7be cf1d 30be
000000b0: 9ec4 1abf 2d7b 1b40 b525 ec3f 0307 6b3e
000000c0: c06b 7f3f f15c 043e 5c9d d3be a6fa 1a3f
000000d0: 2032 c23e f2e4 663c c440 6dbd 724d abbe
000000e0: 7dc7 84bf 1f37 44bd 6fad cbbf 5d68 d33f
000000f0: bf75 b5bf 4963 0a40 daa9 7c3f 3572 ccbf
00000100: 037b 0c40 e77a 223e f1e1 2140 a261 a13f
00000110: 017e 0c40 ecdd ec3e 8c1a 19be 19fb 2e3f
00000120: 8ee5 09c0 5adf 4fbd 9579 0440 57fe 3240
00000130: c64d 07bf 8418 3040 d6ce 2340 9728 fa3f
00000140: ec6f 7c3e 5394 223f 979a da3f 6e55 03c0
00000150: 4517 4b3f b7e5 e7bc 90f3 383e f3b2 7a3f
00000160: a400 bbbc 3f8b 01bf c4b8 e53c 45c2 263d
00000170: 2b26 413e 7fc6 1540 611e 103e e9d2 4cbe
00000180: 7afb 6a3d b686 db3d 9db8 383f 3ea5 4b40
00000190: 26df 1540 e4c6 593e a733 333e 568c 6dbe
000001a0: b18f b23f f9cb f03e 369e cabd c061 413f
000001b0: 175e 883e b26d cfbf a2a7 b43f 1a88 00bf
000001c0: 8db9 99be ee1d b83e c5ec 9ebf fd71 083f
000001d0: 3fa0 2abe 0a9e d3be 3e0c 1abf 0188 9bbf
000001e0: a826 a2bf 1b97 0940 ff9e 97bf bdc1 2b3f
000001f0: a987 0abe 06e0 ac3e 28d8 73bf 75ed f2be
00000200: 1a4d f4be b461 733f 3aa7 5640 30bf 8e40
00000210: 3184 84bf eabb 16bf b08a 31be 1e0a 993e
00000220: dba3 7fbe 988a 813f 022a 1040 119c 1dbd
00000230: 19f3 64bf ff4d 00c0 c51d 0f3f 20c7 1440
00000240: e7d6 1940 1610 a3bf 6b84 0f40 0246 d2bf
00000250: 5eb0 fa3d 77fb 3540 3895 eb3e af3e 2a3e
00000260: a776 fb3e 6775 0840 7a94 bcbf c593 8fbf
00000270: 8809 f93d 1343 86be 0c1a 6d3f 426a d53f
00000280: 2c89 893f 2e6c c3bf f828 383e 054b e4bf
00000290: fe38 ae3f 9735 d7be 1926 56bd 5e3f 38bc
000002a0: 7b3f bfbf 1615 813f fce3 68be 2066 5a3e
000002b0: c5ec c4be f17f aa3f 5687 babe a22a b03f
000002c0: fa97 3040 5bff a1be ef00 0940 4fb3 cc3f
000002d0: 2ad0 7f3d b616 86be d97f 6c3f 6e56 4d3e
000002e0: 4554 8ebe 2692 8b3f b301 4540 fe08 b9bf
000002f0: 680d 1440 be2a 18bf 2f07 e4be ef03 9bbf
-1.2887625 -0.75063956 0.49121073 2.62916 -1.1844583 1.9906383 0.09560768 -0.9977691
-0.50129807 -0.4018989 -0.51451993 -1.1232803 -0.43760866 -0.4429534 -0.096216395 -0.252756
1.8973379 1.4773064 2.6527064 2.0685256 0.21817206 0.10402605 -0.18438683 0.5832124
1.7845569 1.3107836 -2.5075524 0.091635644 0.07123203 -0.4594551 -1.518901 -1.0262358
0.64339167 1.6910162 -1.279854 -1.9228207 0.35141236 0.01399578 -0.3051366 0.1358028
-1.1668409 -0.6643897 -0.4212678 -0.17198871 -0.60456264 2.429393 1.8449007 0.22951894
0.9977379 0.1292608 -0.41330993 0.6053871 0.37928867 0.014092671 -0.057923093 -0.33457524
-1.0373379 -0.04790413 -1.5912303 1.6516224 -1.4176558 2.16231 0.9869667 -1.5972353
2.195008 0.15867196 2.5294154 1.260792 2.1951907 0.46263063 -0.14951533 0.68351895
-2.154636 -0.050750114 2.0699208 2.7967737 -0.5285305 2.7514963 2.5594993 1.9543637
0.2465207 0.63507575 1.7078427 -2.0520892 0.7933238 -0.028307779 0.18061662 0.97929305
-0.022827454 -0.506031 0.028042205 0.040712614 0.18862216 2.3402402 0.14074089 -0.20002331
0.057368733 0.107190534 0.721567 3.1819606 2.341745 0.21267277 0.17500173 -0.23198065
1.3950101 0.4703062 -0.098934576 0.7553978 0.26634285 -1.6205351 1.4113657 -0.50207675
-0.30024377 0.35960335 -1.2416006 0.5329893 -0.16662692 -0.41331512 -0.6017493 -1.215088
-1.2668047 2.1498477 -1.1845397 0.67092496 -0.13528313 0.33764666 -0.95251703 -0.4744679
-0.47715074 0.9507096 3.3539567 4.4608383 -1.0352842 -0.58880484 -0.17338061 0.2989053
-0.2496485 1.012042 2.252564 -0.038478915 -0.8943344 -2.0047605 0.559048 2.3246536
2.4037416 -1.2739284 2.2424572 -1.6427615 0.122406706 2.8434732 0.46012282 0.16625474
0.49113962 2.1321657 -1.4732811 -1.1216971 0.12160021 -0.2622305 0.9261787 1.6673052
1.0744987 -1.5267389 0.17984378 -1.7835394 1.3611143 -0.42033073 -0.052282427 -0.011245577
-1.4941248 1.008456 -0.22743219 0.2132802 -0.3846189 1.3320295 -0.36431378 1.376301
2.759276 -0.31640133 2.140682 1.5992221 0.06245438 -0.26189202 0.9238258 0.20052502
-0.27798668 1.0903976 3.0782287 -1.4455869 2.3133183 -0.5944022 -0.4453673 -1.2110575

bias f4 [64]
00000000: 6b8b 58bf d40f 6abf cdc0 4ebf c1f4 5fbe
00000010: 3af7 e63e bfd8 d13e 6bfb b33e 135d c83e
00000020: c3e5 2cbf 96e2 2fbf c561 80bf 40e3 2fbf
00000030: 9a2f 433e c517 01bf 41c8 43be 2766 ba3e
00000040: da2f 113f 8ba6 503f b81c 633d 0ede 00be
00000050: b5cf bbbe 3c5d f6be f965 60be 5932 453f
00000060: de77 38be 6e7e 0b3e af9c c23e 94cd 5abf
00000070: cd61 4e3f aafe 283f 8b40 f13d a5af 593e
00000080: 4f74 2d3f 4e2e fb3e b066 903f f7b9 653f
00000090: 818e ecbd 3334 00bf 3a27 cdbe 3d02 c8bd
000000a0: a52d 1cbf 43e4 383f f078 86bf b577 70bf
000000b0: 84ba 7ebf 5821 513f b656 0abf 366c 2abf
000000c0: 89dd 0fbf a18d 2fbf da5f 663f 79d8 5cbf
000000d0: 108f 103f 8f40 16be 9bdf babe 42e5 0abf
000000e0: ed6d 2dbf 7b6a 773f c872 49bf 53a3 ff3e
000000f0: c05d 0a3f 158f 483f 7733 8bbf 528c f5be
-0.84587735 -0.914304 -0.8076294 -0.2187071 0.45110494 0.40985677 0.35152754 0.3913351
-0.6753809 -0.6870512 -1.0029837 -0.6870613 0.19061127 -0.50426894 -0.1911936 0.3640606
0.5671364 0.81504124 0.05544731 -0.12584707 -0.36681905 -0.48118007 -0.219139 0.7702995
-0.18014476 0.13622448 0.38010165 -0.8546994 0.8061798 0.66013587 0.11779889 0.2125841
0.677556 0.49058765 1.1281338 0.89736885 -0.11550618 -0.5007965 -0.4006899 -0.09766052
-0.6100715 0.722233 -1.0505657 -0.9393266 -0.9950335 0.81691504 -0.5403856 -0.66571367
-0.5619741 -0.68575484 0.8999001 -0.8626781 0.56468296 -0.14673065 -0.36498722 -0.5425607
-0.6774586 0.9664685 -0.7869077 0.49929294 0.540493 0.78343326 -1.0875081 -0.47958618

weight f4 [64, 64, 3]
00000000: ae28 97bf bd9a c7bf 0a02 aabf bbb5 cc3e
00000010: df4f 2a3f 893a 323f 1eb1 86bf 7d29 5ebf
00000020: 308d 3ebf 6382 80bf 5d44 24bf 3126 87be
00000030: 6b56 97bf 5417 d6bf 0f7e bcbf 6df3 203e
00000040: 0dfe e03d 6ccd 043f ec27 fc3e 1c24 dd3e
00000050: d296 0b3f de94 febe 1da4 84be 434c ffbe
00000060: 55e4 4abf bea3 ab3d 19fa e03e 48ae ec3e
00000070: 4732 a93e dfd8 c93e 1da8 3ebf af8e 9fbf
00000080: b514 7dbf 2474 10be ea7a 1abf 7531 ab3d
00000090: e745 aebf b563 92bf 6aa2 48bf 7d51 60bf
000000a0: faca 43bf 7e59 13bf 25c4 a9bf fb51 6fbf
000000b0: 95f9 0bbf 525f 9a3e e760 ac3e 2590 c73e
000000c0: 352e cebe 2445 a6be a510 45be 5e66 abbe
000000d0: 75b9 aabe 91c0 38be 1e60 a1bf 0604 4ebf
000000e0: 969e 76be 3dd4 8fbf c22d 923d ef3b 793f
000000f0: 38b2 9f3e 7139 1fbf 1dac 0e3f 02c9 203f
00000100: a881 4fbf 610c 183f 4c73 8d3e 2df8 3a3f
00000110: 60e5 4b3f 763e b6be 47e5 83bd 7ac3 85be
00000120: f4e3 86be a4ff debf 39f0 a5bf 2129 79be
00000130: f6ae 143f 9fbb 1f3f 88d7 c23e 09ea 9f3e
00000140: 5c38 013f 7f20 88c0 cb83 86bf ff64 ac3f
00000150: f640 14bf 29b7 99be 69f3 b9be 9ed1 0abf
00000160: 7ebb bfbe 330d cdbe 9e52 afbe 88f8 7fbe
00000170: 73a7 5bbe 3692 723d abe6 05be a7de 28be
00000180: faa2 c2be 3da4 91be 4abe 89be 2b93 fc3e
00000190: 26f3 e73e 4c1e 0c3f 93f7 bbbe e3c7 25be
000001a0: bf64 79be 6658 bbbe 8da8 2fbe 23ff 99be
000001b0: f6ef 2abf 0322 b9be a06f 9f3e 9e18 22bf
000001c0: 8980 8bbf 9302 9fbf e802 9d3e b31c 03c0
000001d0: 1127 90bf b146 7dbf cb8b 44bf e73d e9be
000001e0: 3311 813c 59dc 00c0 2f9e c83e 9996 1dbf
000001f0: 7f4a 77be 83cb afbe 09d5 81bf 860d 7cbf
00000200: 0c1a 90bf 8669 0e3f f331 7c3f e105 e43f
00000210: 2514 79bf cdb6 75bf c462 66bf 5a6a bbbe
00000220: 9232 00be 4eb0 aabe 5666 383f 4f9e 49be
00000230: e74b f2be 9662 383f 1446 5fbf e68c 703d
00000240: 83f8 eabd 6b67 fb3e cc89 293f 6f25 eabd
00000250: 7dde c4bf 2d7e f0be a7ae 6abe 85f6 46be
00000260: e883 06be 4c69 f33f bc0a 58bf 7756 dbbe
00000270: 20e7 e4be d444 79be 2f90 73be 4497 c1bd
00000280: 6889 7fbe 07aa 12bb ad97 08c0 632a 56bd
00000290: 003e ec3f 19e6 033f aa4e ca3e 5f62 d63e
000002a0: c0d8 743f 4396 0bc0 d6e3 38bf dd33 dcbe
000002b0: 72f1 92be fcea 7abe 2dc9 8bbd b943 f5bf
000002c0: 2c45 fdbf b5bc 993e 2ee1 443e d9f2 ed3e
000002d0: c27c 22bf 5f60 c5be d99e 8fbe b6d4 c4be
000002e0: 68e9 1bbe 37b7 abbe f664 5a3d 94fa 233f
000002f0: 1f98 893f b4a7 8cbf 8a54 60bf 57f4 03bf
00000300: b515 c03f 6eeb 6c3f f9a7 72bf cbc2 90bf
00000310: 601a 043e 6e23 8fc0 0315 3d3f 7a55 26be
00000320: 974e b0bf 8d94 e13e 6edf 80bf af91 44bf
00000330: c389 9c3d 1c68 44bd 6c23 c9be 836c 5c3f
00000340: 6d99 efbf cde7 563c 6f0f 5c3f d72d 9c3f
00000350: 547d 58c0 e3bf f3be 9f95 bf3d 6fdd 87be
00000360: 4495 33c0 0a63 053f b5b5 53bf 70df 053f
00000370: 7970 c53d 44bd 9a3e b131 b63f 4930 8c3f
00000380: 1066 58bf b761 4ac0 fcd0 94bf 4bce 193e
00000390: 2c78 84be 2a35 2fbf ef00 3fbf cc3c 163f
000003a0: 5059 4bbf be85 97bf 5e7c e73e 7082 70bf
000003b0: bd14 febd f36b 1e3f ff4b 813f 0cdc 27c0
000003c0: 28f2 e1bf b075 2fbf 673a 33bf 08cb a4bf
000003d0: bc7d 75bf 963b 84be 367f 3e3e 7cf5 36bf
000003e0: 0098 0bbf f438 7abf d51c 193f fa4f e1bf
000003f0: 5796 113f d441 27be 5f68 b93e 45bb a73e
-1.180929 -1.5594097 -1.3281872 0.399824 0.66528124 0.6962057 -1.0522802 -0.86782056
-0.74434185 -1.0039791 -0.64166814 -0.26396325 -1.1823248 -1.6725869 -1.472597 0.1571786
0.10985956 0.5187595 0.49249208 0.43191612 0.5452701 -0.49722952 -0.25906458 -0.4986287
-0.7925466 0.08380841 0.4394081 0.46226716 0.3304617 0.39423272 -0.7447527 -1.2465419
-0.9885972 -0.14106804 -0.603438 0.083590426 -1.3615083 -1.1436678 -0.78372824 -0.8762434
-0.7648159 -0.5755843 -1.3262984 -0.9348447 -0.54677707 0.3015085 0.3366768 0.3897716
-0.40269628 -0.32474625 -0.1924463 -0.33476537 -0.33344617 -0.18042208 -1.2607458 -0.8047489
-0.24083933 -1.1236645 0.07137634 0.97357076 0.31190658 -0.62197024 0.55731374 0.62806714
-0.81057215 0.5939389 0.27627027 0.73034936 0.79646873 -0.3559453 -0.064402156 -0.261257
-0.2634579 -1.7421765 -1.2963935 -0.24332096 0.5807947 0.6239566 0.38055062 0.31233242
0.5047662 -4.253967 -1.050897 1.3468322 -0.5791162 -0.30022553 -0.3631852 -0.542261
-0.37447733 -0.40049133 -0.3424272 -0.24997151 -0.21450596 0.05922147 -0.13076274 -0.16491185
-0.38014966 -0.28445616 -0.26902992 0.4933103 0.45302695 0.5473373 -0.36712322 -0.16189532
-0.24354838 -0.3659088 -0.17154141 -0.30077466 -0.667724 -0.3615876 0.3113985 -0.6331881
-1.0898601 -1.242266 0.3066628 -2.0486267 -1.1261922 -0.9893599 -0.7677581 -0.4555504
0.015755272 -2.013449 0.39183185 -0.6155792 -0.24149512 -0.34334955 -1.0143138 -0.98458135
-1.1257949 0.55629766 0.98513716 1.7814294 -0.97296363 -0.95982057 -0.89994454 -0.36604577
-0.12519291 -0.33337635 0.7203115 -0.19689296 -0.47323534 0.7202543 -0.87216306 0.05872812
-0.11473181 0.4910234 0.66225886 -0.11432921 -1.5380398 -0.46971264 -0.22918187 -0.19429977
-0.13136256 1.9016509 -0.8439138 -0.42839405 -0.44707584 -0.24342662 -0.2378547 -0.0945268
-0.2495476 -0.0022379176 -2.1342576 -0.052286517 1.8456421 0.51522976 0.3951314 0.41871926
0.95643234 -2.1810462 -0.7222265 -0.4300832 -0.28699833 -0.24503702 -0.068254806 -1.9161292
-1.9786735 0.30026785 0.19226524 0.4647434 -0.63471615 -0.38550088 -0.2805088 -0.38443536
-0.15225756 -0.3353822 0.05331894 0.64054227 1.0749549 -1.0988679 -0.87628996 -0.5154471
1.5006624 0.9254674 -0.94787556 -1.1309446 0.12900686 -4.473075 0.73860186 -0.16243544
-1.3773984 0.44058648 -1.0068185 -0.76784796 0.076434635 -0.04795085 -0.39284837 0.86103076
-1.8718697 0.013116789 0.8596105 1.2201489 -3.3826494 -0.47607335 0.0935471 -0.26536128
-2.8059855 0.52104247 -0.8269914 0.52294064 0.09640593 0.30222523 1.4233915 1.0952235
-0.84530735 -3.162214 -1.1626277 0.15020101 -0.25872934 -0.68440497 -0.746108 0.5868652
-0.79433155 -1.183769 0.45212072 -0.9394903 -0.12406299 0.6188347 1.0101317 -2.6228056
-1.7652025 -0.6853895 -0.7001099 -1.287446 -0.9589498 -0.2582671 0.18603215 -0.7146833
-0.5452881 -0.97743154 0.5980962 -1.7602532 0.56870025 -0.16333705 0.3621244 0.32760063

bias f4 [64]
00000000: 6269 09bf 5210 fabe d631 6bbf f296 e23d
00000010: 3530 8cbe 5301 b4bd a768 47be 92d7 84be
00000020: 7c2a 01bf d807 38be dff6 28be 54b1 6ebd
00000030: 59e3 f5be 2ca3 85be 3c44 9fbe ff7f c2bd
00000040: 5b0b b4bd 16bf 86be 87d9 f7bc 3157 1dbf
00000050: a05c 68bd 0885 b1be 8d3c 15bf e22f b73c
00000060: 1934 29bf 2923 98bd c5d9 0abf 3763 2fbf
00000070: bdc8 763d 104f 3cbe b7fb 45bf 053b 273e
00000080: 5677 7dbd fd7a 86bd 3542 77be 5305 6dbe
00000090: e7fe 08bf bf38 c73e 6eaf 663f 3a56 4ebe
000000a0: be8b cabe 5de1 93bd 0ca1 253f 67cd 73be
000000b0: e92a 34bf bb98 a4bd 25e0 39bf 256a 1dbf
000000c0: 98b6 87be 5065 61bf 31a9 88be 1c34 13bf
000000d0: dc58 31bf a3f8 b6be b44e adbe 2df9 73be
000000e0: 1c37 27bf 63e5 35be 2696 60bf 2db4 9cbe
000000f0: 0ba9 7cbf a1cc 04be 9848 3dbf df0f aabe
-0.53676426 -0.48840576 -0.9187292 0.11063947 -0.2738053 -0.08789315 -0.19473515 -0.25945717
-0.5045545 -0.17971742 -0.16500424 -0.058274582 -0.48025015 -0.26101053 -0.31106746 -0.094970696
-0.087912284 -0.26317662 -0.030255092 -0.6146117 -0.05672896 -0.34671807 -0.5829552 0.0223617
-0.6609512 -0.07428581 -0.5423854 -0.68510765 0.060250033 -0.18389535 -0.7733721 0.16331108
-0.061881386 -0.06566427 -0.2414635 -0.23146562 -0.5351395 0.3891048 0.90111434 -0.2015008
-0.3955974 -0.07220719 0.64698863 -0.23808824 -0.70377976 -0.080369435 -0.7260764 -0.6149009
-0.26506495 -0.88045216 -0.26691583 -0.5750139 -0.69276214 -0.3573657 -0.33849108 -0.23825522
-0.65318465 -0.17763285 -0.8772911 -0.30606213 -0.9869544 -0.12968685 -0.73938894 -0.33215234

weight f4 [6, 64]
00000000: 5312 20be aa95 53c0 7190 4ec0 b62c 6fbc
00000010: e36f e3be d69d 393e f53e 703f eff2 d2bf
00000020: 9943 19c0 fb95 9fbd 9ef5 93be 4e04 82bd
00000030: 3153 77c0 3f40 353f ee69 9bbf ac3b 3bbb
00000040: 824c e3bd e6de 1dbe 9980 cdbe 43f1 58bf
00000050: 1bfd b0bd 9179 15be 50b6 6fbe d88c 32be
00000060: e1be 06bf 479c 28be fa82 4340 18ba 78c0
00000070: f2da 9fbe 00a9 253e 8d61 52c0 b730 2abc
00000080: 2bd6 a83e 5d04 f43c bc83 a4bf f31e 20bf
00000090: f9f5 3ebf 02cf 8f3f e6d9 c43e 30f1 eb3e
000000a0: 4dd4 053f 90d8 9bbe 79af d73e cce8 0fbd
000000b0: 65cb 4dc0 ced9 b0bd 6c21 8ec0 8edf 8d3d
000000c0: 6fb3 0abe 4ae8 f8c0 00ff 05bf 2d32 bd3f
000000d0: b8b0 63bf c722 963f 5ae1 2740 7775 c0be
000000e0: f237 53bf eba5 ffbd 42be 23c0 9d2f ee3e
000000f0: 1fa7 c6c0 edc8 ddbd 53fc 9fc0 c112 99bd
00000100: ffbf b03e 77c5 0540 f9ed 1240 c848 113f
00000110: cfa1 e0bf 2c2e 16bf af30 0940 1178 213e
00000120: 0b17 93bc a5a5 4abe ccc8 89bf f3df cfbd
00000130: 1e89 a23f 8c43 37c0 649f e4be 146c b03d
00000140: 2122 82bd 2a45 25be d456 c7be 1110 933e
00000150: 6194 0bbe 937d 06be a45d c8bd 93a0 b7bd
00000160: 1c72 ee3f 81df c3bd 9ad2 6f40 f662 1040
00000170: 2b87 3d3f 5cf3 04c0 41ae 573e a0d3 1d3f
00000180: 7b42 72be 76e5 38be a473 f53c 22b1 f4bf
00000190: 5e48 c4be 66fa a03e 2f2d 273f 7b68 1cc0
000001a0: c21a 28c0 b63b f1bf 99f7 e83e e13b 3cbe
000001b0: 9462 fb3f a7e9 5cbf 07f5 e83f 3203 353f
000001c0: 86d6 fdbd 050b 1740 cbfa dfbf b308 c6bf
000001d0: 02be 1b40 0c3c 73c0 755c 8ebf f571 edbb
000001e0: 0df4 d1be 7f20 f1bd 93c5 6cbe 9cac fcbf
000001f0: b0eb 9840 f298 73bd 5bfe 3240 a320 1abe
00000200: a710 1fbf 292f f93e 296e 9bbf d755 0a3f
00000210: 69ef 30bf 1e95 01bf 0452 e4bf b049 9c3f
00000220: 07f1 d23f 9d87 283d 212d 2cbf 48cc e3bd
00000230: 6933 a63f 392e 643f 3cab 963f 59b2 883d
00000240: 82bd cdbd b6bd 37be 8223 b4be f784 523f
00000250: 658e dfbd 48bc 273d 550d 6c3f 960d 1bbe
00000260: fb19 60bf 8e50 31be 615d 08c1 85e5 c6bd
00000270: cd6f bc3e 2613 2abf ac94 063e ac6f a23e
00000280: 291e 92bd 3944 09be 0d49 ec3e e5da f2be
00000290: 8363 913f 8b15 04bf 0519 2d3e 824e 9a3f
000002a0: 5acc 03be 50ce dabe c253 bb3e 06cc fbbd
000002b0: 0435 e43d e423 1ebf 9b68 a63f cea4 0abf
000002c0: 2d14 0bbe 3799 e73f 6da6 2fbf c53f 4f3f
000002d0: b9fb 07c0 89ad b43f 38f5 4fbf a4e3 45be
000002e0: 7b4e a23f 1cb7 0cbe b696 60bf aab3 17bf
000002f0: e6e3 de3e f9ea a0bd bda6 0e3f 5768 2dbe
00000300: bb9d 6c3f dc35 803e 08b6 c03f 76fa 97be
00000310: 73e7 463e 7f86 333e 438d ad3e c7a1 583f
00000320: c5cc 7fbf 375f b53d 3b1e 203e 8e45 cebc
00000330: f5e4 d63e 5383 2d3f f098 593e b219 a03d
00000340: b00c 843d c641 ef3d c6bb 1a3c abe7 01c0
00000350: 8bc1 403b 8177 11bd 2b48 1b3d fee7 3e3c
00000360: c58f 6dc0 8dfc 353c dd43 16bf bcb6 483f
00000370: 5f93 70be d1c8 2b3e 47dd 263f e954 09bf
00000380: 8317 863d f0cc d33b 2a3a e43d 4e32 483e
00000390: 80b3 e5bf 905f 8abf 8458 afbf bcdc edbf
000003a0: c070 113f f2fc 063e 50e6 babf cea8 a63c
000003b0: 05bc e33b bda6 0c3e 62c9 903f 2600 d83f
000003c0: c084 e33c 178f ff3d 6809 253e 43f3 0cc1
000003d0: bf0b 87bf 0167 d53e eed4 19be 0226 9e3c
000003e0: 0bb3 1cbe 9bd0 6c3c 7b58 c7bd ff95 9a3d
000003f0: acc8 dabf 6589 37ba 826a 823f 07df 8e3c
-0.1563199 -3.3060098 -3.227566 -0.014598062 -0.444213 0.18126616 0.93846065 -1.6480387
-2.3947508 -0.077922784 -0.2889833 -0.06348477 -3.8644526 0.70801157 -1.2141702 -0.0028569503
-0.11098577 -0.1541706 -0.40137175 -0.84743136 -0.08642026 -0.14597155 -0.2340939 -0.1743654
-0.5263501 -0.16465865 3.0548692 -3.8863583 -0.3122173 0.1617775 -3.287204 -0.010387591
0.32975897 0.029787237 -1.2852702 -0.62547225 -0.74594074 1.1235049 0.38447493 0.4608245
0.5227707 -0.30438662 0.42126063 -0.03513412 -3.2155392 -0.08635293 -4.44158 0.06927405
-0.13545011 -7.7783556 -0.52342224 1.4780937 -0.88941526 1.1729363 2.6231294 -0.3758962
-0.8250724 -0.12482818 -2.5584874 0.465207 -6.2079005 -0.10829339 -4.9995513 -0.0747428
0.3452148 2.0901773 2.2957747 0.5675168 -1.754938 -0.586642 2.1435964 0.15768458
-0.017955324 -0.19789751 -1.0764403 -0.10150137 1.2698095 -2.8634977 -0.44652855 0.08614364
-0.06354166 -0.16139665 -0.38933432 0.28723195 -0.13630821 -0.1313384 -0.097834855 -0.08966174
1.8628573 -0.09564114 3.747229 2.25604 0.74034375 -2.0773535 0.21062566 0.6165104
-0.23658173 -0.18056282 0.029962368 -1.9116557 -0.38336462 0.3144104 0.6530332 -2.443877
-2.6266332 -1.8846347 0.45501402 -0.18382217 1.9639459 -0.86294025 1.8199776 0.70708
-0.12394433 2.3600476 -1.7498411 -1.5471405 2.4334722 -3.80054 -1.1121966 -0.0072462508
-0.41006508 -0.11773776 -0.23122244 -1.9740176 4.7787704 -0.059472032 2.7967746 -0.15051512
-0.62134784 0.48668793 -1.2142993 0.5403723 -0.6911531 -0.5061816 -1.7837529 1.2209988
1.6479806 0.041144956 -0.6725636 -0.11122948 1.2984439 0.8913303 1.1771007 0.06674642
-0.10045911 -0.17943463 -0.3518334 0.8223414 -0.109158315 0.040951043 0.92207843 -0.15141901
-0.87539643 -0.17315885 -8.522798 -0.09711746 0.36804047 -0.6643547 0.13142651 0.31725824
-0.07134659 -0.13404931 0.46149483 -0.47432628 1.1358494 -0.5159537 0.16904075 1.2055209
-0.12870923 -0.4273553 0.3658734 -0.12294774 0.111429244 -0.61773515 1.3000673 -0.5415772
-0.13581915 1.8093632 -0.6861332 0.8095668 -2.124739 1.4115459 -0.8123355 -0.1932512
1.26802 -0.13741726 -0.87729967 -0.5925852 0.43533248 -0.078573175 0.5572317 -0.16934334
0.9242818 0.2504109 1.5055552 -0.29683274 0.19424228 0.17531775 0.33896837 0.8462185
-0.9992183 0.088560514 0.15636532 -0.02517965 0.41971555 0.6777851 0.21249747 0.07817401
0.064477324 0.11682467 0.009444183 -2.029765 0.0029412236 -0.03551436 0.03791062 0.011651991
-3.7119 0.011107576 -0.586973 0.7840383 -0.23493718 0.16775824 0.6518139 -0.5364519
0.06547453 0.0064636394 0.111439064 0.1955044 -1.7945404 -1.0810413 -1.3698888 -1.8582988
0.5681267 0.13182428 -1.4601536 0.020344164 0.006949904 0.1373548 1.1311457 1.6875045
0.027773261 0.12478464 0.1611687 -8.80939 -1.055046 0.41680148 -0.15022632 0.019305233
-0.15302674 0.014454032 -0.09733673 0.07548141 -1.709249 -0.00070013694 1.0188754 0.017440332

bias f4 [6]
00000000: e4af 923e 8e5a 4ebe d155 c13e a4c2 82be
00000010: 2b79 8d3e 3c6c 49bf
0.2864982 -0.20151731 0.37760785 -0.25539124 0.27631506 -0.7868078
