models/provided_cnn.pt (torch, 57786 bytes, 6 tensors)

weight f4 [64, 1, 3]
0.27635723 0.29496887 0.2659109 0.9036519 -1.3032311 -1.015633 -0.70132226 -0.58182514
-0.43879586 3.018046 -1.0498676 1.9271022 -0.7295284 -0.029161448 -0.789095 -1.1932087
-0.6697903 0.3890508 0.06579786 0.6195629 0.05004758 0.13211994 0.45061675 0.057797227
-0.13552707 1.5067364 -0.8096197 -0.002874396 -1.3828454 1.3818477 -0.75733674 -0.15046665
-0.6186431 0.14121658 -0.33584565 1.2536489 0.8809821 0.8749005 1.7096016 1.7268034
-1.4883081 -0.7644265 3.1552746 1.7720938 -1.364072 0.071048796 0.6525038 0.054302596
1.3117931 0.97660863 0.53640264 2.2197316 2.0200543 -1.6048207 0.6955573 2.436824
-0.8140684 -0.6164602 -0.67472506 -0.4844307 2.8474214 2.350258 -0.30410823 1.4149383
-1.2113978 1.1282009 0.17607632 0.053258937 0.081350595 -0.42632768 1.7836337 4.4510355
0.46110666 -0.022849364 -0.25019813 0.96283376 -0.10236655 0.15557472 0.6183712 -0.5701483
-0.92323136 -0.5123287 -0.38759276 -0.923409 1.0528572 0.5700322 0.14090542 0.12493675
-0.2769102 1.0642564 -2.2777264 1.3822304 1.4786873 0.5381271 -0.42808613 -1.1110777
-0.0068667512 2.102617 -0.690592 -0.8959765 -1.6193115 1.9411255 -0.2156221 -0.15733631
-0.062334564 1.2339854 1.0433098 -1.6462647 -1.6252729 1.6272585 0.07814611 0.45285636
-0.0926673 0.43236846 -0.49305654 -0.30694774 -0.90746707 0.11194066 -0.25666755 1.0010269
0.79020727 0.017252905 0.17610537 -0.8398886 -0.5530167 -0.23342378 0.28519034 -0.20957315
-0.8531776 0.04378767 0.06744425 0.6642449 -0.01193182 -0.8080653 -0.7318046 -0.76952165
2.2348852 -0.33420447 0.17740044 0.70579004 -0.52001244 -0.4126891 -0.55602115 -0.6584154
0.72549075 1.1653492 -1.8743587 1.531989 1.6370138 -1.49336 1.4248371 -0.7653146
0.09114153 -0.6793084 -0.1335008 -0.82027787 -0.32243267 -0.15025608 0.004078759 0.9239908
0.038470816 -0.12475561 1.0187781 -0.006697678 -0.0458988 0.10556974 -0.27912334 1.1189189
0.6615606 -0.07217975 0.28909272 -0.6865621 -0.17285994 -0.42095548 0.22216943 0.21392831
0.06831603 3.3804605 -0.46114376 2.1299825 1.9712145 -0.8581547 -1.6147318 2.3029265
0.13525903 0.071228676 1.05406 0.01727527 -0.06270339 0.07662657 0.4201712 0.09400587
00000000: b27e 8d3e 2906 973e 7925 883e bb55 673f
00000010: 47d0 a6bf 4300 82bf db89 33bf 7ef2 14bf
00000020: daa9 e0be aa27 4140 1062 86bf 49ab f63f
00000030: 60c2 3abf fde3 eebc 2102 4abf 10bb 98bf
00000040: 6177 2bbf ab31 c73e 07c1 863d ad9b 1e3f
00000050: b1fe 4c3d 734a 073e 3db7 e63e c9bc 6c3d
00000060: 9cc7 0abe bddc c03f 3d43 4fbf 5d60 3cbb
00000070: 1401 b1bf 63e0 b03f d2e0 41bf ee13 1abe
00000080: 655f 1ebf 149b 103e f6f3 abbe 9177 a03f
00000090: 0b88 613f 7bf9 5f3f 3ad4 da3f e507 dd3f
000000a0: e180 bebf 75b1 43bf 05f0 4940 f8d3 e23f
000000b0: e999 aebf 0882 913d 7d0a 273f 666c 5e3d
000000c0: d6e8 a73f 0603 7a3f af51 093f 1510 0e40
000000d0: 9248 0140 c46a cdbf 0b10 323f edf4 1b40
000000e0: c966 50bf 56d0 1dbf c8ba 2cbf 4d07 f8be
000000f0: 273c 3640 a16a 1640 13b4 9bbe b31c b53f
00000100: 150f 9bbf e368 903f 5a4d 343e 0b26 5a3d
00000110: 249b a63d 9f47 dabe 1c4e e43f e26e 8e40
00000120: 2c16 ec3e 972e bbbc f819 80be 467c 763f
00000130: 8ea5 d1bd fb4e 1f3e 934d 1e3f 3df5 11bf
00000140: e458 6cbf f927 03bf 8f72 c6be 8864 6cbf
00000150: 06c4 863f a1ed 113f 8349 103e d7de ff3d
00000160: 2cc7 8dbe 8e39 883f 45c6 11c0 edec b03f
00000170: a045 bd3f b3c2 093f 1b2e dbbe cb37 8ebf
00000180: 7c02 e1bb 4791 0640 a3ca 30bf b75e 65bf
00000190: 9945 cfbf cd76 f83f 0acc 5cbe c51c 21be
000001a0: 8752 7fbd 3cf3 9d3f 2d8b 853f cdb8 d2bf
000001b0: f108 d0bf 024a d03f 110b a03d cadc e73e
000001c0: 5ac8 bdbd 665f dd3e e871 fcbe 4128 9dbe
000001d0: c34f 68bf 2541 e53d ee69 83be a621 803f
000001e0: 064b 4a3f f755 8d3c f754 343e f002 57bf
000001f0: 8192 0dbf a506 6fbe 7804 923e 589a 56be
00000200: d969 5abf b35a 333d 3620 8a3d f40b 2a3f
00000210: ae7d 43bc 5edd 4ebf 8c57 3bbf 5fff 44bf
00000220: 5c08 0f40 d91c abbe 76a8 353e a8ae 343f
00000230: 891f 05bf fc4b d3be 6757 0ebf e98d 28bf
00000240: c3b9 393f 2a2a 953f fcea efbf 3718 c43f
00000250: ab89 d13f 6c26 bfbf 1061 b63f a8eb 43bf
00000260: 69a8 ba3d 28e7 2dbf 6fb4 08be bbfd 51bf
00000270: e515 a5be bbdc 19be 1ca7 853b a98a 6c3f
00000280: 9393 1d3d df7f ffbd 5267 823f 3278 dbbb
00000290: 6100 3cbd f334 d83d 41e9 8ebe bc38 8f3f
000002a0: 095c 293f fad2 93bd f603 943e 89c2 2fbf
000002b0: 3202 31be 7a87 d7be 6280 633e 0610 5b3e
000002c0: 46e9 8b3d 7759 5840 091b ecbe a251 0840
000002d0: c250 fc3f 07b0 5bbf 88af cebf 2663 1340
000002e0: 5881 0a3e 57e0 913d 70eb 863f de84 8d3c
000002f0: a36a 80bd 64ee 9c3d ae20 d73e 2686 c03d

bias f4 [64]
0.28115818 -0.7991444 -0.73424715 -1.1744026 -0.11949426 -0.778817 0.6018046 0.45781994
0.29418916 -0.11245904 -0.7379461 0.8899486 0.55863875 -0.730869 0.17463392 0.63551974
0.45762974 -0.5333531 -0.39063504 -0.70696265 0.550454 -0.6723299 0.08199142 0.056567878
-0.27636603 0.837875 -0.68189955 -0.18104856 0.31749204 0.73828006 -0.5464345 0.14318255
-0.5841082 -0.71568245 -0.49665844 -0.24409921 -0.09684244 0.5903226 -0.42761868 0.6845355
0.77237165 -0.68976426 0.30328068 0.6160805 -0.64655656 -0.73498976 0.2172119 0.042101674
-0.6207964 -0.570518 0.58869773 -0.18140347 -0.59517735 0.70757544 0.7914306 0.79436743
0.64836395 -0.61870545 0.07628891 -0.9401393 -0.69114923 0.39116275 0.8369669 0.38647854
00000000: f7f3 8f3e ba94 4cbf 9ff7 3bbf d352 96bf
00000010: 68b9 f4bd 8d60 47bf de0f 1a3f 6067 ea3e
00000020: f69f 963e ed50 e6bd 09ea 3cbf acd3 633f
00000030: f302 0f3f 3b1a 3bbf 3cd3 323e 6cb1 223f
00000040: 724e ea3e d489 08bf 5101 c8be 81fb 34bf
00000050: 8eea 0c3f d01d 2cbf 1eeb a73d b8b3 673d
00000060: d97f 8dbe fa7e 563f f890 2ebf cb64 39be
00000070: 518e a23e ecff 3c3f 22e3 0bbf 729e 123e
00000080: 1d88 15bf f736 37bf 044a febe 25f5 79be
00000090: 5455 c6bd 621f 173f d6f0 dabe b83d 2f3f
000000a0: 26ba 453f 6494 30bf 9b47 9b3e 74b7 1d3f
000000b0: bb84 25bf 4a28 3cbf cc6c 5e3e ce72 2c3d
000000c0: 83ec 1ebf 780d 12bf e5b4 163f d5c1 39be
000000d0: 8b5d 18bf aa23 353f 329b 4a3f aa5b 4b3f
000000e0: 2efb 253f 7b63 1ebf 5c3d 9c3d f8ac 70bf
000000f0: 28ef 30bf 7c46 c83e 7643 563f 84e0 c53e

weight f4 [64, 64, 3]
0.16487455 0.5606835 -1.2422248 0.2979585 -0.49971476 -0.42439812 -0.35163733 -0.29075527
-0.53791636 -4.13869 -4.214573 2.2686107 -0.005835252 -0.20450918 0.012655291 0.1751118
-0.33680272 -0.19394091 0.29983583 0.68859 -1.0559303 0.32112 0.6286608 -1.1102493
0.35289574 0.825576 -0.17006363 -0.014719466 0.06541252 -0.11537805 -0.22681944 -0.1266683
-0.30511266 0.5826475 0.69954884 -1.5623451 1.2485917 0.7560072 -2.6067595 -1.4644296
-2.3939142 -0.4800616 -1.042569 0.8983708 -1.7721287 0.44800314 0.6661033 -1.058937
-0.71103454 0.7870721 -2.516077 0.16660206 -0.1387789 -0.59048134 -2.389671 -0.34072468
-0.6458891 -0.3474125 -0.287956 -0.5227372 -1.5893642 1.4978193 -1.7739782 -2.13308
-2.1365604 1.4831897 0.13713531 0.6215809 -1.4824466 2.6535316 0.23967132 -1.1247723
-0.25280678 0.26055193 -0.4723512 -0.06790644 0.6339199 -1.6261103 0.43313405 -0.027190898
-0.7016677 0.010930665 -0.16644074 -0.025786186 -1.1582633 0.5877988 -1.9284506 0.5201902
0.65117896 -1.6270043 1.6564566 -0.25353912 -0.59102225 0.24106275 -0.21397087 -0.33717826
-3.3799179 -1.1416335 -0.44391164 0.37411594 -0.19646911 0.78008586 -0.34232444 -0.50197357
0.8582526 0.6308774 -1.0747386 -1.7266468 0.85397637 -0.51555264 0.02236077 0.33336425
0.6443547 -1.5283655 -0.22290552 -0.32539254 -0.22225283 0.60957426 0.7443911 -1.7408377
0.24430966 0.6964293 -1.5182308 -0.25977466 -0.37367156 -0.5002839 0.051187515 -0.047182333
-0.38275975 0.6263693 0.7349904 -1.3817658 -0.16862726 -0.3010135 -0.5078422 0.35843828
-0.9477074 -0.5501054 0.055347096 0.52903646 -0.7463914 -0.0034472824 -0.07649934 -0.14203492
-0.044136338 -1.9384218 -2.0095768 0.037595656 -1.4338753 -0.6601174 -0.8778889 0.48002902
-2.127051 0.08826653 -0.1563874 0.015772037 -0.46737024 -0.7701116 0.8313184 -0.43881384
0.5816503 -1.6567746 -0.56647533 0.5489449 -1.7130007 0.6225993 0.6350115 -1.6023439
0.058182564 0.66407084 -1.7155877 -0.22281274 -0.057877947 -0.26861662 -0.15383142 0.5654132
-1.4130998 -3.360257 -2.9152393 1.6637115 -0.8549671 -3.0188155 -2.583349 -1.7103636
0.501134 -1.8150287 -0.3237246 0.55272007 -1.6879493 0.4134551 0.6860591 -0.9918938
-0.3454368 -0.4311332 -0.6458341 -0.08876733 0.52159345 -0.18072617 -1.522069 -1.1926407
-0.1731285 0.46099833 0.61420584 1.132974 -0.17556944 -0.66770095 -0.20741916 -0.7315494
-0.47071204 0.7366445 -0.35456055 -0.5394715 -0.42896935 -0.38246027 -0.4914997 -0.6643774
0.08479129 0.14579833 0.13931862 0.32681197 0.53791904 1.2241826 0.4021527 -0.4807824
-0.0090625 -0.48442236 -0.3509017 -0.3563534 -0.1599602 -0.47112337 -1.0106796 0.8403837
0.96467894 0.83570695 0.039374452 -0.08536173 0.038575258 -0.38962737 -0.61499524 -0.5485078
-0.31581223 -0.6300988 -0.6587509 1.0059725 0.57620376 1.0338489 0.50104904 0.5137098
0.9100889 -1.2408247 -0.7718165 -0.325 0.045274407 -0.37845623 -0.22400571 0.5460914
00000000: e0d4 283e f488 0f3f 3901 9fbf 048e 983e
00000010: 9dda ffbe b64a d9be cf09 b4be e0dd 94be
00000020: e3b4 09bf 2670 84c0 c8dd 86c0 eb30 1140
00000030: a435 bfbb db6a 51be 2358 4f3c 8250 333e
00000040: 6871 acbe 7298 46be 1584 993e 6f47 303f
00000050: b928 87bf d769 a43e eaef 203f a61c 8ebf
00000060: c0ae b43e f358 533f 2925 2ebe ea29 71bc
00000070: 00f7 853d 544b ecbd 5b43 68be 56b5 01be
00000080: ba37 9cbe 6328 153f a215 333f edfa c7bf
00000090: dad1 9f3f b089 413f 26d5 26c0 6e72 bbbf
000000a0: e435 19c0 a2ca f5be e772 85bf a1fb 653f
000000b0: 1dd5 e2bf ab60 e53e bf85 2a3f 3f8b 87bf
000000c0: 5c06 36bf 8f7d 493f 6807 21c0 bb99 2a3e
000000d0: 0e1c 0ebe c929 17bf 5ff0 18c0 7773 aebe
000000e0: fd58 25bf 0de0 b1be f86e 93be 1bd2 05bf
000000f0: 4970 cbbf 8bb8 bf3f b811 e3bf 6284 08c0
00000100: 68bd 08c0 29d9 bd3f 336d 0c3e ed1f 1f3f
00000110: cfc0 bdbf 76d3 2940 666c 753e 8af8 8fbf
00000120: e46f 81be 1067 853e 04d8 f1be 8812 8bbd
00000130: 9348 223f 6224 d0bf bfc3 dd3e 72bf debc
00000140: 7fa0 33bf 8816 333c 716f 2abe 8d3d d3bc
00000150: f941 94bf fb79 163f 78d7 f6bf 2f2b 053f
00000160: aab3 263f ad41 d0bf c506 d43f e1cf 81be
00000170: 3c4d 17bf 27d9 763e 2e1b 5bbe a1a2 acbe
00000180: 9350 58c0 0c21 92bf 6348 e3be 208c bf3e
00000190: 332f 49be b5b3 473f 2645 afbe 5781 00bf
000001a0: 71b6 5b3f 2e81 213f 0991 89bf c302 ddbf
000001b0: 329e 5a3f 42fb 03bf ef2d b73c b8ae aa3e
000001c0: 6ef4 243f 7ba1 c3bf 5841 64be da99 a6be
000001d0: 3f96 63be 0f0d 1c3f 6a90 3e3f c5d3 debf
000001e0: 502c 7a3e 3149 323f 6355 c2bf 2f01 85be
000001f0: e151 bfbe 9b12 00bf 00aa 513d 4342 41bd
00000200: 16f9 c3be bd59 203f 5528 3c3f b4dd b0bf
00000210: a0ac 2cbe 711e 9abe f201 02bf 3985 b73e
00000220: f49c 72bf b5d3 0cbf a3b3 623d ef6e 073f
00000230: 8213 3fbf cdeb 61bb b0ab 9cbd 9a71 11be
00000240: 4ec8 34bd 351e f8bf e89c 00c0 e7fd 193d
00000250: 3a89 b7bf 74fd 28bf 54bd 60bf 5dc6 f53e
00000260: 9b21 08c0 15c5 b43d 0524 20be 5c34 813c
00000270: 274b efbe 0926 45bf 48d1 543f 35ac e0be
00000280: 09e7 143f 3111 d4bf 8704 11bf a787 0c3f
00000290: 9b43 dbbf ab62 1f3f 1d90 223f 9b19 cdbf
000002a0: d750 6e3d 8c00 2a3f 6198 dbbf 0629 64be
000002b0: 6d11 6dbd 1e88 89be fc85 1dbe ebbe 103f
000002c0: 74e0 b4bf 730e 57c0 4893 3ac0 80f4 d43f
000002d0: 20df 5abf 4634 41c0 9755 25c0 32ed dabf
000002e0: 514a 003f dc52 e8bf 3bbf a5be 107f 0d3f
000002f0: b90e d8bf 63b0 d33e 92a1 2f3f c1ec 7dbf
00000300: 18dd b0be 7ebd dcbe 6255 25bf a5cb b5bd
00000310: 2687 053f 4810 39be 28d3 c2bf 73a8 98bf
00000320: 9948 31be f907 ec3e 983c 1d3f 4b05 913f
00000330: 7ac8 33be 73ee 2abf b065 54be d246 3bbf
00000340: 2b01 f1be bc94 3c3f f688 b5be ce1a 0abf
00000350: dfa1 dbbe d5d1 c3be d9a5 fbbe a314 2abf
00000360: 0ea7 ad3d 284c 153e 8aa9 0e3e e653 a73e
00000370: 10b5 093f 04b2 9c3f f5e6 cd3e 1c29 f6be
00000380: e17a 14bc 3506 f8be 63a9 b3be f473 b6be
00000390: 9bcc 23be 1537 f1be f35d 81bf 6323 573f
000003a0: 33f5 763f e4f0 553f 1b47 213d 21d2 aebd
000003b0: 1701 1e3d 3d7d c7be 5470 1dbf 026b 0cbf
000003c0: 24b2 a1be 284e 21bf e6a3 28bf b5c3 803f
000003d0: 1782 133f 2955 843f c044 003f 7c82 033f
000003e0: 96fb 683f 58d3 9ebf c495 45bf 6666 a6be
000003f0: a871 393d 04c5 c1be c161 65be a5cc 0b3f

bias f4 [64]
0.41068652 -0.54505056 -0.16934796 -0.090187654 -0.8435306 -0.14298609 -0.5543583 -0.20352674
-0.06461175 -0.17509228 -0.37676105 -0.278674 -0.5628931 -0.167934 0.056166157 0.62834764
-0.06995996 -0.61047196 -0.40409365 -0.61367714 -0.2720587 -0.5730311 -0.45694605 -0.6149109
-0.59720135 -0.09150308 -0.08489641 0.37402326 -0.22490752 -0.53591937 -0.15364087 -0.40065914
-0.08159377 -0.44276184 -0.49518606 -0.06209645 -0.43589938 -0.3644407 -0.09494859 -0.066625305
-0.1288516 -0.050329648 0.41520375 -0.49303004 -0.4042916 -0.402303 -0.05831068 -0.22725163
-0.54251724 -0.47764134 -0.011009511 -0.15762427 0.05426264 -0.12048399 0.6663609 -0.30848104
-0.15273537 -0.03057181 0.46109095 -0.5083319 -0.2060469 -0.37159863 -0.107266076 -0.024629569
00000000: 8145 d23e 6f88 0bbf 8d69 2dbe 4eb4 b8bd
00000010: 9ff1 57bf f26a 12be 6dea 0dbf 5069 50be
00000020: 2a53 84bd 644b 33be d3e6 c0be 5cae 8ebe
00000030: c319 10bf e4f6 2bbe 7c0e 663d 64db 203f
00000040: 2b47 8fbd e447 1cbf 5de5 cebe f219 1dbf
00000050: 474b 8bbe 2bb2 12bf d5f4 e9be cd6a 1dbf
00000060: 30e2 18bf f865 bbbd 2bde adbd fa7f bf3e
00000070: 284e 66be 0332 09bf 0854 1dbe 3223 cdbe
00000080: a21a a7bd aeb1 e2be 0789 fdbe d958 7ebd
00000090: 342e dfbe f997 babe 6874 c2bd d972 88bd
000000a0: adf1 03be 7626 4ebd 9695 d43e 6f6e fcbe
000000b0: 4fff cebe a9fa cdbe 2ed7 6ebd a7b4 68be
000000c0: 69e2 0abf 688d f4be 3c61 34bc 4268 21be
000000d0: 8142 5e3d 4fc0 f6bd a196 2a3f 3af1 9dbe
000000e0: a966 1cbe bc71 fabc 1d14 ec3e 0a22 02bf
000000f0: f5fd 52be 2d42 bebe 51ae dbbd f3c3 c9bc

weight f4 [6, 64]
2.52627 -0.7753876 -0.15846764 -0.13322538 -4.0581627 -1.1599333 -1.196562 -0.1266657
-0.28805843 -0.1434079 1.2017219 -0.06337296 0.028528024 -0.27890423 -0.6332262 0.4504857
-0.05353936 -5.243664 -3.789623 -0.92288274 -0.058222536 -6.707991 -1.1323007 -1.7727535
-0.80288166 2.5596712 -0.30508983 -0.041461494 -0.20141755 -3.9709542 0.08229171 -0.56293666
-0.49269748 -0.9390127 -1.7073596 1.8078047 -1.941147 -0.9305556 -0.13352175 1.0602071
-0.016423201 0.16729476 0.21683206 -1.5320297 -0.48519045 -0.27971125 -0.41680428 -1.494042
-0.31215587 -1.2280931 -0.32807586 -0.2554221 1.6313355 0.18590724 1.2460649 -1.9901086
-0.03447371 -0.48252457 0.23538798 -0.28661105 -0.080843866 -0.046018444 -0.04923287 -0.245441
2.6216724 -1.7977684 -0.80873865 -1.4776983 4.5234747 -0.37039873 -0.04494939 -0.102019764
-1.5729914 -0.108073175 -2.7355309 -0.12440611 -1.3463124 0.08657588 -1.6873281 0.59834516
-0.0715315 0.5134549 2.2823021 0.45652914 -0.6731062 4.5754886 0.66371423 0.535208
-1.603228 -0.39043015 -1.2009937 -0.32237098 1.0341892 2.6251402 -0.14730981 1.2049282
-1.0062966 1.3876313 -1.6044186 -0.6746845 1.401398 -0.1629854 0.3367246 -0.37377435
-0.8961604 0.24173278 0.44227412 0.43266016 -0.64463586 1.4040153 -0.79620045 2.0998476
-1.1150315 1.2345387 -0.8120755 -0.96717954 -1.0018185 -0.0048009497 0.5763662 -0.8835948
-0.95503503 -1.9150811 0.43885112 -0.5677283 -1.3007867 1.5643415 0.02113881 -0.452362
-2.0293894 -0.6692529 -0.4076488 -0.42862844 -0.52571625 0.45451137 0.50385326 -0.18123077
-0.50823814 -0.16934827 0.9016368 -0.09208724 1.1258839 -1.7133609 -0.5342267 0.31019133
-0.058050603 1.6568985 -0.060857784 -0.7934807 -0.3612146 -0.84890205 -0.6953671 0.77263075
0.76477283 -1.3229866 -0.48753533 0.33124843 -0.9780854 -0.3843996 -0.24029215 -0.9281677
-0.49788424 -0.55478925 1.1184999 -0.2580717 -0.5383727 1.2441766 0.47999048 -1.187606
-0.3371389 0.22593972 0.36475992 0.36351714 1.3897989 -1.7365468 -0.37270883 -0.6783585
1.3978019 -0.67695147 -0.40878353 -0.4126124 0.099166766 -0.16643125 -0.25842732 0.992548
-0.4800086 -0.6030235 0.3250856 0.66820425 -0.44216865 -1.9057436 0.035393972 -0.3259702
-1.4330281 0.3161895 0.1245585 0.19429183 0.36771068 2.5653546 0.43928456 -0.004475801
0.11631929 0.010173119 -1.6451658 0.018256698 -2.9172163 0.31400537 0.13870904 -0.7018065
-0.029821457 0.7105524 0.9536265 -0.597417 0.10097272 0.87733394 0.45579198 -0.040192943
-0.23957433 -0.24048533 0.048961997 1.4556835 -1.3664594 0.90037084 -0.013598785 -1.2596473
0.09419143 4.380952 0.7082597 1.1927485 -0.39141583 -0.9646041 -0.23753987 0.13166116
0.18641482 -0.067312635 -0.3652927 0.44684708 -3.0776007 -0.94609267 0.14262976 0.15595715
-9.1854105 -0.71995795 0.14264897 0.16817167 2.4234908 -0.053596348 -2.379593 2.1382718
0.18770029 0.087897554 -0.32816792 0.23306544 0.16477884 -0.7991456 0.07673368 0.09934345
00000000: 68ae 2140 cd7f 46bf 5745 22be 3c6c 08be
00000010: 78dc 81c0 b278 94bf f228 99bf a7b4 01be
00000020: 657c 93be 85d9 12be 06d2 993f afc9 81bd
00000030: 9ab3 e93c 89cc 8ebe 1d1b 22bf 10a6 e63e
00000040: 174c 5bbd 18cc a7c0 2f89 72c0 0b42 6cbf
00000050: c17a 6ebd dda7 d6c0 3bef 90bf 96e9 e2bf
00000060: a789 4dbf a7d1 2340 bc34 9cbe 87d3 29bd
00000070: 6740 4ebe 1d24 7ec0 8e88 a83d 9e1c 10bf
00000080: d842 fcbe 2363 70bf c28a dabf 2566 e73f
00000090: 8177 f8bf e438 6ebf edb9 08be deb4 873f
000000a0: f389 86bc 514f 2b3e 3909 5e3e 8d19 c4bf
000000b0: e26a f8be 5036 8fbe 5f67 d5be c53c bfbf
000000c0: e5d2 9fbe 2832 9dbf 8ff9 a7be afc6 82be
000000d0: 9acf d03f 785e 3e3e 0e7f 9f3f e1bb febf
000000e0: 4e34 0dbd 760d f7be 8c09 713e afbe 92be
000000f0: 7891 a5bd d67d 3cbd 68a8 49bd e354 7bbe
00000100: 7bc9 2740 461d e6bf 7f09 4fbf 3825 bdbf
00000110: 4ec0 9040 e7a4 bdbe da1c 38bd bdef d0bd
00000120: c857 c9bf 7855 ddbd f012 2fc0 a1c8 febd
00000130: f753 acbf b24e b13d 5efa d7bf 262d 193f
00000140: 1b7f 92bd c871 033f 3d11 1240 30be e93e
00000150: b050 2cbf 676a 9240 2de9 293f 6403 093f
00000160: 9336 cdbf 76e6 c7be 29ba 99bf cf0d a5be
00000170: 5060 843f 4c02 2840 62d8 16be 163b 9a3f
00000180: 54ce 80bf e79d b13f 975d cdbf 20b8 2cbf
00000190: 0261 b33f a5e5 26be 2b67 ac3e 5a5f bfbe
000001a0: c56a 65bf cc88 773e c171 e23e a285 dd3e
000001b0: db06 25bf c6b6 b33f cbd3 4bbf e763 0640
000001c0: 5ab9 8ebf 5d05 9e3f 2ee4 4fbf 1499 77bf
000001d0: 973b 80bf 4951 9dbb bc8c 133f 4533 62bf
000001e0: 2d7d 74bf 6121 f5bf 18b1 e03e a456 11bf
000001f0: 2e80 a6bf 583c c83f 4c2b ad3c fe9b e7be
00000200: 84e1 01c0 2854 2bbf 58b7 d0be 3075 dbbe
00000210: 5795 06bf b7b5 e83e 87fc 003f 8f94 39be
00000220: e51b 02bf a269 2dbe abd1 663f 3c98 bcbd
00000230: f71c 903f 694f dbbf 15c3 08bf 66d1 9e3e
00000240: 78c6 6dbd 4015 d43f 0346 79bd 8d21 4bbf
00000250: 1ff1 b8be a551 59bf 9403 32bf 21cb 453f
00000260: 27c8 433f a057 a9bf 3b9e f9be 6599 a93e
00000270: ce63 7abf 06d0 c4be 250f 76be 669c 6dbf
00000280: afea febe ab06 0ebf 012b 8f3f f921 84be
00000290: cbd2 09bf 2e41 9f3f 50c1 f53e 7903 98bf
000002a0: 789d acbe be5c 673e d0c1 ba3e eb1e ba3e
000002b0: eee4 b13f 2a47 debf b1d3 bebe e7a8 2dbf
000002c0: 2ceb b23f b14c 2dbf 134c d1be ef41 d3be
000002d0: f217 cb3d f46c 2abe 9650 84be a017 7e3f
000002e0: b0c3 f5be c05f 1abf 9f71 a63e 6f0f 2b3f
000002f0: ee63 e2be 68ef f3bf 45f9 103d 91e5 a6be
00000300: 776d b7bf 97e3 a13e 8718 ff3d 70f4 463e
00000310: 9344 bc3e c52e 2440 e8e9 e03e bda9 92bb
00000320: cf38 ee3d 27ad 263c cb94 d2bf 128f 953c
00000330: acb3 3ac0 50c5 a03e be09 0e3e 97a9 33bf
00000340: 214c f4bc c3e6 353f de20 743f 52f0 18bf
00000350: c9ca ce3d f598 603f 915d e93e 5ba1 24bd
00000360: f952 75be c941 76be 608c 483d d653 ba3f
00000370: 24e8 aebf b47e 663f 70cd 5ebc 1f3c a1bf
00000380: 70e7 c03d c230 8c40 8250 353f fcab 983f
00000390: a867 c8be 4bf0 76bf a73d 73be 2fd2 063e
000003a0: 87e3 3e3e 35db 89bd a507 bbbe 24c9 e43e
000003b0: 69f7 44c0 2133 72bf 890d 123e 3bb3 1f3e
000003c0: 71f7 12c1 2a4f 38bf 9212 123e 3235 2c3e
000003d0: 791a 1b40 d887 5bbd 404b 18c0 72d9 0840
000003e0: 8134 403e a203 b43d a005 a8be b5a8 6e3e
000003f0: c9bb 283e ce94 4cbf 8c26 9d3d 9474 cb3d

bias f4 [6]
0.4615604 0.13310379 -0.0262113 -0.1692198 -0.026785508 -0.55956805
00000000: a551 ec3e 5c4c 083e 15b9 d6bc f547 2dbe
00000010: 486d dbbc da3f 0fbf
